checkpoint_actor_new.pth (torch_old, 92254 bytes, 18 tensors)

fc1.weight f4 [128, 33]
0	0xbd1f7235	-0.038927276
1	0x3f82b516	1.0211513
2	0xbebbbf06	-0.36669177
3	0xbdb51641	-0.08842135
4	0x3e440dd1	0.19145896
5	0xbd65e845	-0.056129713
6	0xbd6f9641	-0.058492903
7	0xbf10197c	-0.56288886
8	0x3eef926a	0.46791393
9	0xbdf293fc	-0.11844632
10	0xbddf158b	-0.10892781
11	0xbef25865	-0.47333065
12	0x3e9c4c35	0.3052689
13	0x3d8428b7	0.06453078
14	0xbf970fee	-1.1801736
15	0x3f0c3657	0.54770416
16	0x3e342afe	0.17594525
17	0x3ef83601	0.48478702
18	0xbf2b66b1	-0.6695357
19	0x3bdb652a	0.0066954093
20	0xbdb9389d	-0.09044001
21	0x3d2f5959	0.042809818
22	0xbf26ed2f	-0.65205663
23	0xbcb146de	-0.021640237
24	0xbf370420	-0.7149067
25	0x3df01bf5	0.117240824
26	0x3ebad0df	0.3648748
27	0x3d969e2e	0.07354389
28	0x3eb33ee1	0.3500891
29	0x3a336a6d	0.0006844167
30	0xbda5a4d6	-0.080880806
31	0xb9b73c2f	-0.0003494932
32	0x3e44c905	0.19217308
33	0x3e79c560	0.24391699
34	0x3ed1944f	0.40933463
35	0x3d702aea	0.058634676
36	0xbe822167	-0.2541611
37	0x3ee011b9	0.4376352
38	0x3e986e77	0.29771778
39	0xbec4e94b	-0.38459238
40	0xbd41217a	-0.047151066
41	0x3eb2a13b	0.34888634
42	0xbc64b7c3	-0.013959828
43	0xbd897715	-0.06712166
44	0x3e4cbbc5	0.19993503
45	0xbf204ab9	-0.6261402
46	0xbef1b8f8	-0.47211432
47	0x3d4f14e8	0.050557047
48	0x3dc94141	0.09826899
49	0x3e9c17f7	0.30487034
50	0x3f03d6de	0.51499736
51	0x3e3158fb	0.173191
52	0xbe8338b7	-0.25629207
53	0xbe557b7f	-0.20847891
54	0xbf4462f0	-0.76713467
55	0xbef6a3ee	-0.48171943
56	0xbf56b697	-0.8387236
57	0x3e92536e	0.28579277
58	0x3d1415ca	0.036153592
59	0x3ebc12a1	0.36732963
60	0x37a79a2a	1.997974e-05
61	0xbf6dc797	-0.92882675
62	0xbd4b2ff4	-0.04960628
63	0xbc9a6cf7	-0.018850787
64	0x3d85e68b	0.06538113
65	0x3dc96ac0	0.09834814
66	0x3dbea422	0.093086496
67	0x3e0fe5e4	0.1405254
68	0xbb65ec09	-0.0035083315
69	0xbef39a83	-0.4757882
70	0x3e1f6233	0.15564804
71	0xbebc1ffe	-0.36743158
72	0xbea14d57	-0.31504318
73	0x3d340c3b	0.043956976
74	0x3e068865	0.13137968
75	0xbe4d26a9	-0.20034279
76	0x3dbd0739	0.09229893
77	0x3edfcd88	0.43711495
78	0xbe904980	-0.28181076
79	0xbf690cef	-0.9103536
80	0xbe0bbfe0	-0.13647413
81	0x38a7b9be	7.997778e-05
82	0x3e715c7d	0.23570438
83	0x3e124549	0.14284243
84	0xbf48a3f6	-0.78375185
85	0xbeb86c5a	-0.36020166
86	0xbe3cd0c1	-0.18439008
87	0x3e93a8ad	0.28839627
88	0xbd5ce818	-0.05393228
89	0xbed94759	-0.42437246
90	0xbe4eedef	-0.20207952
91	0xbea4d096	-0.32190388
92	0x3f137b40	0.5760994
93	0xbd5ef8b8	-0.054436415
94	0xbf084f73	-0.5324623
95	0x3d510ee2	0.051039584
96	0x3d0b880a	0.034065284
97	0x3c420e25	0.011844193
98	0xbe4d4378	-0.20045269
99	0xbe367375	-0.17817481
100	0x3eb7e643	0.35917863
101	0xbe3af328	-0.18256819
102	0xbe821347	-0.25405332
103	0xbe1dbe2f	-0.1540458
104	0x3e449718	0.19198263
105	0x3e9de6de	0.308402
106	0xbd738261	-0.05945051
107	0x3ee52f3a	0.44762594
108	0xbebcbdbd	-0.3686351
109	0xbeb07d91	-0.344708
110	0x3e202aaf	0.15641282
111	0xbe49e704	-0.19717032
112	0x3d4088ae	0.047005348
113	0xbf12944c	-0.57257533
114	0xbeb6e796	-0.3572356
115	0x3ea7a475	0.32742658
116	0x3e172ea0	0.1476388
117	0xbe2d5a29	-0.16928925
118	0x3dec744f	0.115456216
119	0x3dd71b8f	0.10503303
120	0xbd16895d	-0.036752094
121	0xbdaf841a	-0.08570118
122	0xbe91205a	-0.28344995
123	0xbe8fa780	-0.2805748
124	0xbd8008d9	-0.062516876
125	0x3f432214	0.76223874
126	0xbcae385f	-0.021267114
127	0xbed81765	-0.4220535
128	0xbd15b833	-0.03655262
129	0x3c31b8c5	0.010847275
130	0x3caa1bfc	0.020765297
131	0xbf5d5fb1	-0.8647414
132	0xbe987a1d	-0.29780665
133	0x3f40b16e	0.75270736
134	0xbf38b6e8	-0.7215409
135	0x3eb1ff04	0.34764874
136	0x3e724f70	0.23663116
137	0xbe684081	-0.22680856
138	0xbec4c34e	-0.38430256
139	0xbaa04bae	-0.0012229586
140	0x3e347288	0.17621815
141	0xbea19d64	-0.31565392
142	0xbeb183aa	-0.34670764
143	0x3ee70f6e	0.4512896
144	0xbf19d493	-0.6008999
145	0x3db6989c	0.08915827
146	0xbed7821a	-0.42091447
147	0x3e79edb6	0.24407086
148	0x3e1131ef	0.14179204
149	0xbf10f1ec	-0.56619143
150	0x3f28859c	0.6582887
151	0x3d3199e6	0.04335966
152	0xbc6f444b	-0.014603685
153	0x3ebc1eda	0.36742288
154	0xbefcfdb2	-0.49412304
155	0xbd87e488	-0.06635386
156	0xbf1f178a	-0.6214529
157	0xbea76cd9	-0.32700232
158	0xbdc3f104	-0.095674545
159	0x3d4bba0a	0.049737968
160	0x3f2c3692	0.6727077
161	0xbcef3493	-0.029199874
162	0x3d0ec156	0.03485235
163	0x3cbdc1fc	0.023163788
164	0xbc93f957	-0.01806323
165	0x3e19834c	0.14991492
166	0x3efdfbf8	0.496063
167	0x3eb33b70	0.35006285
168	0x3f112664	0.56699204
169	0xbe909c5e	-0.282443
170	0xbf2abae1	-0.66691405
171	0xbd83a5ca	-0.06428106
172	0xbee308b2	-0.44342571
173	0xbf35a845	-0.70959884
174	0x3e128b87	0.14311038
175	0x3ecbd95d	0.39814273
176	0x3ecb6b36	0.39730233
177	0xbda2beff	-0.07946586
178	0xbe404518	-0.18776357
179	0xbf4ba1d2	-0.79543793
180	0x3d9815e7	0.074260525
181	0x3ebdfac5	0.37105384
182	0xbf852de7	-1.0404633
183	0x3f370b15	0.71501285
184	0x3ef480c5	0.47754493
185	0xbda3061d	-0.079601504
186	0x3e9c8a2a	0.3057416
187	0xbea30fb7	-0.31847927
188	0xbf2e9577	-0.68196815
189	0xbf498c0d	-0.78729326
190	0x3e2e3c36	0.17015156
191	0xbec80d6b	-0.39072737
192	0xbc9a1ccf	-0.018812565
193	0xbd8a7144	-0.06759885
194	0x3c2d87ca	0.010591457
195	0x3cbe836a	0.023256022
196	0x3cbe5477	0.023233635
197	0xbebc53f6	-0.36782807
198	0x3f86f0f7	1.0542287
199	0xbda9380c	-0.08262643
200	0xbede5d7f	-0.43430707
201	0xbe683939	-0.22678079
202	0x3e6e02d4	0.23243266
203	0xbea311be	-0.31849474
204	0xbf2737a9	-0.65319306
205	0xbec54714	-0.3853079
206	0xbd8a8fbb	-0.06765696
207	0x3edc3efc	0.43016803
208	0x3f72424d	0.94632417
209	0xbf1f532c	-0.62236285
210	0xbf460d3c	-0.77363944
211	0xbe2bfccb	-0.16795652
212	0x3e9fe3e5	0.31228557
213	0x3e290d27	0.16508923
214	0x3ec84a5b	0.3911923
215	0xbe42c6e7	-0.19021188
216	0x3d392950	0.045205414
217	0x3ddc6a82	0.10762502
218	0x3d71469e	0.058905236
219	0xbe16d2a3	-0.14728789
220	0xbd82e517	-0.06391352
221	0xbd4e58ed	-0.050377775
222	0x3ea6d34d	0.32583085
223	0xbf105d42	-0.563923
224	0xbee5382d	-0.4476942
225	0xbd7773d6	-0.060413204
226	0x3ebf7d6e	0.37400383
227	0xbbb8c10f	-0.0056382488
228	0xbd7150d9	-0.058914993
229	0x3d01b9e4	0.03167142
230	0x3d31786f	0.043327745
231	0x3f1f53b7	0.62237114
232	0xbec3ad29	-0.38218048
233	0xbe5dcc5d	-0.2165999
234	0xbebb7873	-0.36615333
235	0x3e077f29	0.13232102
236	0xbe488444	-0.19581705
237	0xbe27abc4	-0.16374117
238	0xbd21630f	-0.03940111
239	0xbde4d9fb	-0.11174389
240	0xbd0d01c6	-0.03442552
241	0x3f12e428	0.5737939
242	0xbed7e0c4	-0.4216367
243	0x3da6c039	0.08142132
244	0xbf293c33	-0.6610748
245	0x3ebc7fce	0.36816257
246	0x3ee504f6	0.44730347
247	0xbe1f9f33	-0.15588073
248	0xbd58d8f4	-0.052941278
249	0xbe7344df	-0.23756741
250	0xbde9c460	-0.11414409
251	0x3e2f2949	0.17105593
252	0x3e945b3c	0.28975856
253	0x3e882e4b	0.2659782
254	0xbe876b24	-0.2644893
255	0x3eb67d37	0.35642406

fc1.bias f4 [128]
0	0x3cd3b702	0.0258441
1	0xbce56e78	-0.028006777
2	0xbcc9f346	-0.024652135
3	0x3c962955	0.018330256
4	0xbc2771e2	-0.010220023
5	0xbe193931	-0.14963223
6	0x3e2c70eb	0.1683995
7	0xbc5b63ee	-0.013390524
8	0x3d886d3a	0.06661458
9	0x3d77bb17	0.060481157
10	0x3c8d182d	0.017223442
11	0xbe2f8759	-0.17141475
12	0x3e29b4b7	0.16572843
13	0xbd988cfb	-0.07448765
14	0x3e24faeb	0.16111343
15	0x3e2f4c47	0.17118941
16	0x3db2b118	0.08725184
17	0x3df0a3e8	0.11750013
18	0xbc70b2dc	-0.014691081
19	0x3e07a8c2	0.1324797
20	0x3e001e6a	0.12511602
21	0xbd7166f5	-0.058936078
22	0x3dcf3661	0.10117794
23	0xbe058953	-0.13040666
24	0x3da8e454	0.08246675
25	0x3e1c5ad6	0.15269026
26	0xbe19c129	-0.15015091
27	0xbe132f80	-0.14373589
28	0x3ca8211f	0.020523606
29	0x3d282c8a	0.0410581
30	0x3e0f6f51	0.14007308
31	0xbe1a5e6a	-0.15075079
32	0xbd5d0ea5	-0.053969044
33	0x3a5693cc	0.00081854756
34	0x3e244513	0.16041975
35	0xbd6632ff	-0.056200977
36	0x3dd13e93	0.10217013
37	0xbe24021a	-0.16016427
38	0x3e1801a3	0.14844374
39	0x3d1725a6	0.03690114
40	0xbe01d8a6	-0.12680301
41	0x3c333a11	0.010939137
42	0x3cec10de	0.028816637
43	0xbe0e4645	-0.13893993
44	0xbd9ddbb7	-0.07707923
45	0x3e051785	0.12997253
46	0xbcb245ae	-0.021761741
47	0xbd568615	-0.052373964
48	0x3c0bf50a	0.008542309
49	0x3e1bcb5a	0.15214291
50	0xbd9b152c	-0.075723976
51	0x3e2405ef	0.16017888
52	0xbcfa8bc0	-0.030584216
53	0x3e06d924	0.1316877
54	0xbe0c6a64	-0.1371246
55	0xbe140fb9	-0.14459123
56	0xbd927c6f	-0.0715264
57	0x3cbe3594	0.023218907
58	0xbc5140c0	-0.012771785
59	0xbd9c5a11	-0.07634366
60	0xbd3aa998	-0.045571893
61	0xbdf5f81d	-0.120102145
62	0xbe0d22d4	-0.13782817
63	0x3dcaf97a	0.09910865
64	0xbd75463d	-0.059881438
65	0xbe01c290	-0.12671876
66	0x3dc5aa72	0.096516505
67	0xbd919e70	-0.07110298
68	0x3d683a27	0.056696083
69	0x3d7c5ab7	0.06160995
70	0xbdbdb71c	-0.09263441
71	0xbdb76467	-0.08954697
72	0x3c389a1d	0.011267212
73	0x3d91c429	0.07117493
74	0x3c0486a7	0.008088744
75	0xbd91011a	-0.07080288
76	0xbd38b4be	-0.045094244
77	0x3e222712	0.15835217
78	0x3cb8531e	0.02250057
79	0x3c102ab7	0.0087992465
80	0x3d6d5dcb	0.057950776
81	0xbdb2c756	-0.087294266
82	0x3d21e6cb	0.039526742
83	0xbe31f285	-0.1737767
84	0x3d6af050	0.057358086
85	0x3d8de745	0.06928877
86	0xbdc64873	-0.09681787
87	0x3de20992	0.11036982
88	0x3dc0bc9c	0.094109744
89	0x3e004ecd	0.1253006
90	0x3de2dda6	0.11077432
91	0xbdfc93b9	-0.12332863
92	0xbe224be0	-0.15849257
93	0xbd751405	-0.059833545
94	0xbdcc69fc	-0.099811524
95	0x3d1038d1	0.035210434
96	0xbc629da2	-0.013831528
97	0x3d97438f	0.07385933
98	0x3e1628e0	0.1466403
99	0x3e22b649	0.15889849
100	0xbd94423b	-0.07239195
101	0xbe15e748	-0.14639008
102	0x3d06132d	0.03273313
103	0x3cfd4dd3	0.030920899
104	0xbe190f08	-0.1494714
105	0xbe1e2ca1	-0.15446712
106	0x3e1aae80	0.15105629
107	0xbdd3f3d0	-0.10349238
108	0xbe24cd8d	-0.16094036
109	0xbd306e86	-0.043074153
110	0x3dc6563a	0.09684415
111	0x3db227ca	0.086989954
112	0x3c457954	0.012052853
113	0x3e0a7320	0.13520479
114	0xbe0fe057	-0.14050423
115	0xbda67392	-0.08127512
116	0xbdce6771	-0.10078324
117	0x3dcbc0b8	0.099488676
118	0x3d434741	0.047675375
119	0xbdcdea5b	-0.100544654
120	0x3b78642f	0.003790151
121	0xbdeb5a85	-0.114918746
122	0x3d806454	0.06269136
123	0xbdaeb9d2	-0.08531536
124	0x3c24fc10	0.010069862
125	0xbdd32802	-0.10310365
126	0xbd02f537	-0.031972136
127	0xbd99d8b3	-0.07512035

fc2.weight f4 [128, 128]
0	0xbf10bb4b	-0.56535786
1	0xbedfd477	-0.43716785
2	0xbe94de67	-0.2907593
3	0x3b969d0a	0.0045963572
4	0x3e96af5e	0.2943067
5	0xbe467ece	-0.1938431
6	0xbf36dc23	-0.7142965
7	0xbeba813a	-0.36426717
8	0x3d945adc	0.072438926
9	0x3e9bff0d	0.30468026
10	0x3f02137a	0.5081097
11	0x3e8a0be7	0.26962206
12	0xbe9e8629	-0.3096173
13	0xbe6a36a8	-0.22872412
14	0x3f3fee79	0.74973255
15	0x3ebd59a4	0.36982453
16	0xbd184bef	-0.03718179
17	0x3e59c8de	0.21268031
18	0xbe75293d	-0.23941512
19	0xbe875129	-0.26429108
20	0x3f3617b0	0.71129894
21	0x3e5c6a7c	0.21524996
22	0xbe0d921c	-0.13825268
23	0xbe52f904	-0.20602804
24	0xbe63091d	-0.22171445
25	0x3f198e3c	0.5998266
26	0xbea31eeb	-0.31859526
27	0x3e5b57d1	0.21420218
28	0xbf4f90aa	-0.81080115
29	0xbe4b7c08	-0.19871533
30	0xbf031ed0	-0.5121889
31	0xbcd8d039	-0.026466476
32	0x3e562870	0.20913863
33	0x3f308ea6	0.68967664
34	0xbd6699e4	-0.056299105
35	0x3c999c2e	0.01875123
36	0xbe2d2e62	-0.16912225
37	0xbde4ea27	-0.111774735
38	0x3ea1d528	0.31607938
39	0xbf1041ee	-0.563506
40	0x3f7211c6	0.9455837
41	0xbf0665c6	-0.52499044
42	0x3dceb61c	0.10093328
43	0xbfc2083a	-1.515876
44	0x3c3f5b61	0.011679501
45	0xbf1653b2	-0.5872146
46	0xbefd3ba4	-0.49459565
47	0x3e926436	0.2859208
48	0xbd03bd10	-0.032162726
49	0x3eba753c	0.36417568
50	0x3eb0519e	0.3443727
51	0x3f7f96f8	0.99839735
52	0xbf7e56fa	-0.99351466
53	0xbf30f89a	-0.69129336
54	0xbe7aad72	-0.24480227
55	0xbf01f0ca	-0.5075804
56	0xbe155752	-0.14584091
57	0xbdd310f8	-0.10305971
58	0xbe59d353	-0.2127202
59	0xbe3efe8b	-0.18651788
60	0xbd20fb84	-0.039302364
61	0xbe49899d	-0.19681402
62	0x3e032b83	0.12809567
63	0x3e8d09b2	0.2754646
64	0x3ef53e6e	0.47899193
65	0xbf41d60d	-0.7571724
66	0x3f60c292	0.8779689
67	0x3e0d9d15	0.13829453
68	0xbded8965	-0.115984716
69	0xbf0acc69	-0.54218155
70	0x3e65c065	0.22436674
71	0xbf077438	-0.5291171
72	0x3eded033	0.43518218
73	0x3cf5da46	0.030011307
74	0x3d285908	0.04110053
75	0x3eecd20d	0.46254006
76	0x3e9e99db	0.30976757
77	0x3f1ad791	0.6048518
78	0x3e20b0f9	0.1569251
79	0x3f1e86ef	0.6192464
80	0x3d9b123b	0.075718366
81	0xbf6705e1	-0.90243345
82	0xbd8fdfbd	-0.070250966
83	0x3d7f272e	0.062293224
84	0xbee12096	-0.43970174
85	0xbf2ac3a1	-0.66704756
86	0x3dc04ddb	0.0938985
87	0x3e8f273f	0.2795963
88	0xbe9848bb	-0.2974299
89	0x3da082e8	0.078374684
90	0x3f2acf19	0.66722256
91	0x3f2fd3cf	0.6868257
92	0xbefad286	-0.48988742
93	0x3e74a948	0.238927
94	0xbe81e13e	-0.2536716
95	0x3f4128c1	0.7545281
96	0xbe5c3012	-0.21502712
97	0x3ea46a0f	0.32112166
98	0xbde61a49	-0.11235482
99	0x3db53213	0.088474415
100	0xbe312846	-0.1730052
101	0xbe03b798	-0.12863004
102	0xbe90c145	-0.28272453
103	0x3dff9bd2	0.12480892
104	0x3e9d144b	0.30679545
105	0x3ee5a002	0.4484864
106	0x3dbde47e	0.09272097
107	0xbdbc67d6	-0.09199493
108	0x3f34daae	0.7064618
109	0x3e0435a9	0.12911095
110	0x3e90c5ad	0.28275815
111	0xbf2620d6	-0.64893854
112	0xbc8bbc05	-0.017057428
113	0x3c02553f	0.007954895
114	0xbd9f9712	-0.07792486
115	0xbf79a2a7	-0.9751381
116	0x3e10b3c9	0.14131083
117	0xbe9a9963	-0.3019515
118	0x3ef99596	0.48746938
119	0x3ece362f	0.40275714
120	0x3ed678fe	0.41889185
121	0xbcfd249b	-0.030901244
122	0xbea9d76f	-0.33172175
123	0xbf6edba8	-0.9330392
124	0xbe660c64	-0.22465664
125	0xbf0fccac	-0.5617168
126	0xbe8e0918	-0.27741313
127	0x3d35caec	0.044382975
128	0x3f0d6f0d	0.55247575
129	0xbf876020	-1.057621
130	0xbeee9128	-0.4659512
131	0x3e802f3a	0.2503603
132	0x3eeac45f	0.45852944
133	0xbe3ce9ea	-0.18448606
134	0xbde3dba7	-0.1112588
135	0x3eac2809	0.33624294
136	0xbf4b5b35	-0.79436046
137	0xbce03b0a	-0.027371902
138	0xbe58213c	-0.21106428
139	0xbf5242ad	-0.8213299
140	0x3ea64b19	0.3247917
141	0xbf0d8cc9	-0.55292946
142	0xbe29e01a	-0.16589394
143	0x3d2c317f	0.04203939
144	0xbd869533	-0.06571426
145	0xbeba0131	-0.36329034
146	0x3e7d8ac8	0.24759972
147	0x3ce7e12e	0.028305616
148	0xbf39ee36	-0.72629106
149	0x3f05c13f	0.52247995
150	0xbe28c014	-0.16479522
151	0x3e2f04cc	0.17091674
152	0x3e8d0240	0.2754078
153	0xbf356b8b	-0.7086722
154	0xbf90d663	-1.1315426
155	0xbf139e4d	-0.5766342
156	0x3e97a560	0.2961836
157	0x3f01a904	0.5064852
158	0xbf62d936	-0.8861269
159	0x3e994c7a	0.2994116
160	0x3e2dd2e7	0.16974984
161	0x3f4c6354	0.7983906
162	0xbf0fdc98	-0.56195974
163	0xbeeb5139	-0.45960405
164	0xbf10c098	-0.56543875
165	0x3c8a3ea5	0.016875574
166	0xbf9c40bd	-1.2207257
167	0xbeb7c74d	-0.35894242
168	0x3e847799	0.25872496
169	0x3d6b044c	0.057377145
170	0xbe857246	-0.26063746
171	0xbf1a03ef	-0.6016225
172	0x3c8a1b81	0.016858818
173	0x3e1826cb	0.14858548
174	0xbe6271a5	-0.22113664
175	0xbd9a3583	-0.07529738
176	0xbd1a84ff	-0.03772449
177	0xbf20f467	-0.6287293
178	0xbe92b340	-0.28652382
179	0x3eabc75f	0.33550546
180	0xbe4b9d90	-0.19884324
181	0x3eeb51aa	0.45960742
182	0x3f0b3a56	0.5438589
183	0x3d804732	0.062635794
184	0x3f013a3a	0.5047947
185	0xbe82ef88	-0.25573373
186	0x3da092d6	0.07840507
187	0x3e65939f	0.22419594
188	0x3e569372	0.20954683
189	0xbf0bff04	-0.54686
190	0xbe49ca2b	-0.19706027
191	0x3e64159d	0.2227387
192	0x3e94b870	0.29046965
193	0x3ed39572	0.41324955
194	0xbea7ee03	-0.32798776
195	0x3e8096d2	0.25115067
196	0x3e95b50a	0.29239684
197	0xbed4e2a4	-0.41579163
198	0x3f8051cf	1.0024966
199	0xbf0042e7	-0.50102085
200	0xbe6cfcf8	-0.23143375
201	0x3efd3ae7	0.49459
202	0xbe2a451a	-0.16627923
203	0x3f2708b9	0.65247685
204	0x3e767e94	0.24071723
205	0xbef9e43e	-0.48806947
206	0xbeb1fa62	-0.3476134
207	0xbe4b2f8b	-0.19842355
208	0x3e750b18	0.23930013
209	0x3efdd06c	0.49573076
210	0x3f087836	0.5330843
211	0x3db3acbc	0.08773181
212	0x3e72a009	0.23693861
213	0x3ee8d44a	0.45474464
214	0xbef04362	-0.4692641
215	0xbe8b84a8	-0.27249646
216	0x3f371fcf	0.7153291
217	0x3dbe934f	0.09305441
218	0xbe7f596a	-0.24936453
219	0x3df6750c	0.12034044
220	0x3c48e8ba	0.012262518
221	0xbc83e9f7	-0.016102774
222	0xbef18f6c	-0.47179735
223	0xbef9bb7d	-0.48775855
224	0xbf13c0e4	-0.577162
225	0xbeedebb7	-0.464689
226	0xbf74b244	-0.9558451
227	0x3dfbff80	0.12304592
228	0x3e3e3c2e	0.18577644
229	0xbcc23003	-0.023704534
230	0xbd276e6d	-0.040876795
231	0x3f62cf5d	0.8859766
232	0xbe2e491c	-0.17020077
233	0x3ec0d839	0.37664965
234	0xbeaee34f	-0.34157798
235	0x3ed3afa0	0.4134493
236	0xbe0b7c3c	-0.1362161
237	0x3f2ad4ff	0.66731256
238	0x3f6daaf6	0.9283899
239	0xbec323c8	-0.38113236
240	0xbd8c6a64	-0.0685623
241	0x3e4017b6	0.18759045
242	0x3e876dc7	0.2645094
243	0x3dd91d07	0.1060124
244	0xbdb7301c	-0.08944723
245	0xbf0b632e	-0.5444821
246	0x3dd938f9	0.1060657
247	0xbf56ecc1	-0.8395501
248	0xbf24ea9f	-0.64420503
249	0xbe0c6b4c	-0.13712806
250	0x3ec85c38	0.39132857
251	0x3e88e854	0.26739752
252	0xbe913f53	-0.28368625
253	0xbeb8c212	-0.36085564
254	0x3f651371	0.8948279
255	0xbe962293	-0.29323253

fc2.bias f4 [128]
0	0xbd405789	-0.04695848
1	0x3d2d2409	0.042270694
2	0xbccf2998	-0.025288388
3	0x3c5ef90a	0.01360918
4	0x3d8f9d91	0.07012475
5	0xbd566d12	-0.05235011
6	0x3d7c6288	0.061617404
7	0xbc6238a4	-0.0138074495
8	0xbd3c8cba	-0.046032645
9	0xbd70238d	-0.058627654
10	0x3d907fa9	0.07055599
11	0xbd90efcf	-0.0707699
12	0x3d8855fd	0.06657026
13	0x3d8c94b1	0.06864298
14	0xbda277b8	-0.07932991
15	0xbda4a188	-0.08038622
16	0xbc58ad8b	-0.01322497
17	0xbc0b84ab	-0.008515517
18	0xbd60ba68	-0.05486527
19	0x3d8340a9	0.06408817
20	0xbc0d3eb9	-0.008620911
21	0xbc07c6ac	-0.008287113
22	0x3cf38bd2	0.029729757
23	0x3d4131bf	0.047166582
24	0xbda1818e	-0.07886039
25	0x3b508aa3	0.0031820915
26	0xbd628209	-0.055299792
27	0xbc918528	-0.01776369
28	0x3d1df623	0.038564812
29	0xbdab6776	-0.08369343
30	0x3c54bd73	0.012984621
31	0x3ccff622	0.02538592
32	0xba0530a4	-0.00050807954
33	0x3d1f9679	0.03896186
34	0x3b9517ba	0.0045499476
35	0x3c238ee8	0.009982802
36	0xbc5d0ad4	-0.013491351
37	0xbca9c123	-0.020721978
38	0xbd53ed37	-0.051739898
39	0x3d00a016	0.03140267
40	0xbd1d2444	-0.038364664
41	0xbcf58df2	-0.029974911
42	0xbd140183	-0.036134254
43	0x3cf748db	0.030186107
44	0x3dad29c4	0.08455232
45	0xbd0bdcae	-0.034146003
46	0xbda20a7e	-0.079121575
47	0xbcb6a9ee	-0.022297826
48	0x3c5698dd	0.013097969
49	0x3cb6f2ae	0.022332516
50	0x3ce353dc	0.027749948
51	0xbc66a22d	-0.014076752
52	0xbc1d85c8	-0.0096144155
53	0xbda297e4	-0.07939127
54	0xbd2fa5dd	-0.04288279
55	0xbd7a60bd	-0.061127413
56	0xbb1c9410	-0.0023891963
57	0x3d06c253	0.032900166
58	0xbd6d7189	-0.057969604
59	0x3d925a9e	0.0714619
60	0xbda2a645	-0.0794187
61	0x3d4c15ef	0.049825605
62	0xbda767b3	-0.08174076
63	0x3dae86c8	0.08521801
64	0x3d4ef82b	0.05052964
65	0x3c0adab2	0.008474993
66	0xbdae8519	-0.0852148
67	0xbd9b49ec	-0.07582459
68	0xbd1aa54e	-0.037755303
69	0xbd3ee130	-0.046601474
70	0x3da2db1f	0.0795195
71	0xbc15ec35	-0.009150554
72	0xbc0ecb5e	-0.008715479
73	0xbd5aeaf3	-0.05344672
74	0xbdad34dd	-0.084573485
75	0x3d03ff1f	0.032225724
76	0x3d2b114b	0.04176454
77	0xbc654500	-0.013993502
78	0xbd99f2fb	-0.07517048
79	0x3c7bff9f	0.015380769
80	0x3d0f8d3c	0.0350468
81	0x3cea8d43	0.028631812
82	0x3d56b4c9	0.052418504
83	0xbd9cee1d	-0.07662604
84	0xbd10bb17	-0.035334673
85	0xbd701218	-0.058611006
86	0x3da1e8ba	0.07905717
87	0x3d3289fe	0.04358863
88	0xbd666e00	-0.056257248
89	0xbce1c89d	-0.02756148
90	0x3db16e0e	0.086635694
91	0x3d55b937	0.052178588
92	0x3d98d4ee	0.07462488
93	0x3c5cac39	0.013468795
94	0x3db1d6a6	0.08683519
95	0x3d882012	0.06646742
96	0x3c7370cd	0.014858437
97	0xbc0bd7df	-0.008535354
98	0x3d1074a8	0.035267502
99	0xbd43762c	-0.04772012
100	0xbda234e0	-0.07920241
101	0x3d2a0d69	0.041516695
102	0x3c02506f	0.007953747
103	0x3b0bb875	0.0021319662
104	0xbd06af8f	-0.03288227
105	0xbcec33a4	-0.028833218
106	0x3c2a98ee	0.010412438
107	0x3d119e3f	0.035551306
108	0xbd80f925	-0.062975205
109	0x3c914ff3	0.017738318
110	0x3cf7eac1	0.030263307
111	0xbda762e6	-0.0817316
112	0xbd306b16	-0.043070875
113	0xbc8b1500	-0.016977787
114	0x3d07075d	0.032966007
115	0x3d332bad	0.043742824
116	0xbd0e35cc	-0.034719273
117	0xbbf507af	-0.0074777226
118	0xbd59e7d9	-0.053199623
119	0xbd8cf0a6	-0.068818375
120	0xbdad82b9	-0.08472199
121	0xbd620c19	-0.05518732
122	0xbcc96fea	-0.024589498
123	0xbc889aaf	-0.016675321
124	0xbaa08677	-0.0012247105
125	0x3c576878	0.013147466
126	0x3c66d747	0.014089412
127	0x3d86224b	0.065495096

fc3.weight f4 [4, 128]
0	0x3e89f881	0.26947406
1	0xbf521846	-0.8206829
2	0xbe854ee6	-0.26036757
3	0xbe88a083	-0.2668496
4	0xbf3b3e51	-0.7314196
5	0x3e391a3d	0.18076415
6	0xbf507ba8	-0.81438684
7	0xbf7d32aa	-0.9890543
8	0x3efe7f79	0.4970663
9	0x3f56d4b8	0.83918333
10	0xbe2ef1fc	-0.17084497
11	0x3f78d50a	0.9720007
12	0xbf1b642c	-0.60699725
13	0xbe50d9cc	-0.20395583
14	0x3cda3211	0.026635202
15	0xbf87c8bd	-1.0608135
16	0xbe40ffd6	-0.18847594
17	0x3f0d0877	0.5509104
18	0x3f0d4268	0.5517945
19	0x3f875e6f	1.0575694
20	0xbf8a100a	-1.0786145
21	0xbf5f80cc	-0.87305903
22	0xbfa4ec85	-1.288468
23	0x3f797054	0.97437024
24	0xbdc87d9e	-0.097895846
25	0x3dcbaa3b	0.09944578
26	0x3f2ec1ce	0.6826447
27	0x3e70a22e	0.23499367
28	0xbeff20be	-0.49829668
29	0xbe1e2415	-0.15443452
30	0x3f2216a5	0.633158
31	0x3f721cec	0.9457538
32	0x3fca347f	1.579727
33	0x3fb4b320	1.4117165
34	0xbf60b55e	-0.87776744
35	0x3f8e1d13	1.1102623
36	0xbee6a949	-0.4505103
37	0x3f91d0d0	1.139185
38	0x3ec3caaf	0.38240573
39	0x3e77be34	0.2419365
40	0xbe3d1ec2	-0.18468764
41	0xbd911877	-0.070847444
42	0xbf850dad	-1.0394799
43	0xbecb6c11	-0.39730886
44	0xbedf8a36	-0.43660134
45	0xbea3eea2	-0.32018
46	0x3e728cea	0.23686567
47	0xbe4b4622	-0.19850972
48	0xbeee0477	-0.4648778
49	0xbf09099f	-0.53530306
50	0xbf482107	-0.78175396
51	0x3f4be351	0.7964373
52	0xbe52eaad	-0.20597334
53	0xbf0b49b7	-0.54409355
54	0xbf32619c	-0.6968019
55	0x3f25b1e5	0.6472457
56	0x3f4a8672	0.791114
57	0x3ef38915	0.47565523
58	0xbf546b3b	-0.8297612
59	0x3ef830a9	0.48474625
60	0xbf8394ea	-1.027982
61	0xbe5b080e	-0.21389791
62	0xbc9cda30	-0.019147009
63	0xbf6a4686	-0.9151386
64	0xbf304300	-0.68852234
65	0xbdf05c00	-0.117362976
66	0xbf725370	-0.94658566
67	0x3eb50cb0	0.35361242
68	0x3f001450	0.50030994
69	0x3f28b912	0.65907395
70	0x4008e56a	2.1390023
71	0x3f5deb41	0.86687094
72	0x3f9f6333	1.2452148
73	0xbf81493a	-1.0100472
74	0x402848fc	2.6294546
75	0x3fd2a6a2	1.6457102
76	0xbfa15e4f	-1.2606906
77	0x3f01452b	0.50496167
78	0x3f3b58eb	0.73182553
79	0x3f9a4202	1.2051394
80	0xbccf937e	-0.025338884
81	0xbeadfaa6	-0.33980292
82	0xbd722d0f	-0.059125002
83	0x3fca0b72	1.5784743
84	0x3e8ccb00	0.27498627
85	0x3fdb1488	1.7115641
86	0x3e99c939	0.30036333
87	0x3f9aa5af	1.2081813
88	0xbd41e9fc	-0.047342286
89	0xbf25736f	-0.6462926
90	0x3f099874	0.5374825
91	0xbed18d1d	-0.40927973
92	0x3f9aaae2	1.2083399
93	0xbfcd285e	-1.6027944
94	0x3f0e3597	0.5555052
95	0x3eee675b	0.4656323
96	0x3d30d8ac	0.043175384
97	0x3e6a150b	0.2285959
98	0x3ee75fef	0.4519038
99	0x3fbce773	1.4758133
100	0x3e85e9bc	0.26154888
101	0x3f39dcb5	0.726024
102	0xbfa595a5	-1.2936293
103	0x3f13cdd5	0.5773595
104	0x3fee9c3d	1.864143
105	0xbeab4401	-0.3345032
106	0x3f0c3f6b	0.5478427
107	0xbf049bb7	-0.518001
108	0x3f68e812	0.9097911
109	0x3fb7e39e	1.4366338
110	0x3f2e1076	0.6799387
111	0x3fa6552d	1.2994744
112	0x3f7b58f3	0.981826
113	0x3f83fdef	1.0311869
114	0xbf08965b	-0.53354424
115	0x3faadf77	1.3349446
116	0xbf7907b6	-0.9727739
117	0xbfb3f07e	-1.4057767
118	0x3ee3ca6a	0.44490367
119	0x3f707efa	0.9394375
120	0xbeebe5f7	-0.46073887
121	0xbf51b082	-0.81909955
122	0xbf86cdbc	-1.0531535
123	0x3f6962ba	0.9116627
124	0xbe3acd68	-0.18242419
125	0xbe2b3404	-0.16719061
126	0xbf3daadb	-0.7408883
127	0xbec8aad8	-0.39192843
128	0xbf8bddc6	-1.0927055
129	0xbe007a9a	-0.12546769
130	0xbf5f65e0	-0.87264824
131	0x3fad8571	1.3556348
132	0x3d922c9a	0.07137413
133	0xbf99e48e	-1.2022874
134	0x3f44c819	0.76867825
135	0x3f70dc8d	0.94086534
136	0xbe23d3e9	-0.15998806
137	0x4061e21a	3.5294251
138	0x3eeb3e91	0.45946172
139	0xbeb60d7e	-0.3555717
140	0x3ebf2591	0.37333348
141	0x3fa0f979	1.2576133
142	0xbfab39dd	-1.3377033
143	0x3ede51e9	0.43421867
144	0xbf198e21	-0.59982497
145	0xbf089b07	-0.5336155
146	0xbfbfc2d1	-1.4981328
147	0x3e1ff483	0.15620618
148	0xbe0bee24	-0.13665062
149	0x3f584431	0.8447905
150	0xbd4cd546	-0.05000808
151	0x3eba696c	0.36408556
152	0x3f1bc696	0.60849893
153	0x3e3e4a4c	0.1858303
154	0xbe05a984	-0.13052946
155	0xbe876276	-0.26442307
156	0xbf403da9	-0.75094086
157	0xbf565a17	-0.83731216
158	0x3f0f374b	0.55943745
159	0x3faffad4	1.3748422
160	0xbe501427	-0.20320188
161	0xbf4bfb3c	-0.7968023
162	0x3fc6f53c	1.554359
163	0x3ea8269f	0.32841966
164	0xbe7dd2ea	-0.24787489
165	0xbf132b2d	-0.57487756
166	0x3f70e4dc	0.9409921
167	0x3fa7e6cf	1.3117312
168	0x3f85b2c7	1.0445184
169	0x3fc04f80	1.5024261
170	0xbed6da5f	-0.4196348
171	0xbf57130b	-0.8401343
172	0x3f9d40d2	1.2285407
173	0xbf45a3a7	-0.7720284
174	0x3e97bfff	0.2963867
175	0xbf45aac5	-0.772137
176	0xbf7da60c	-0.9908149
177	0xbf72410a	-0.9463049
178	0xc0029554	-2.0403643
179	0x3f8b8723	1.0900615
180	0xbfb0a8f6	-1.3801563
181	0xbeb8e45a	-0.36111718
182	0xc02600a7	-2.5937898
183	0xbe9208ad	-0.28522244
184	0xbfbc151f	-1.4693946
185	0xbded290d	-0.115800954
186	0xbf1ff076	-0.6247629
187	0xbe9f5878	-0.31122184
188	0xbed7b566	-0.42130584
189	0x3e5b2df1	0.21404244
190	0xbea2679d	-0.31719676
191	0x3ef2862e	0.47367996
192	0x3e6bd88a	0.23031822
193	0xbf3d71a6	-0.7400154
194	0xbf117487	-0.5681843
195	0xbf1301cc	-0.57424617
196	0xbf9c09ab	-1.219045
197	0xbe9add38	-0.30246902
198	0x3f4cb776	0.7996744
199	0xbfc13daa	-1.5096943
200	0x3e6f5d68	0.23375475
201	0x3f97dd18	1.1864347
202	0x3f4951e0	0.78640556
203	0xbd3e7558	-0.046498626
204	0xbf8a1e0e	-1.0790422
205	0xbf759abf	-0.9593925
206	0x3f8ace6c	1.0844245
207	0xbe10d4a1	-0.14143611
208	0x3f852011	1.0400411
209	0x3fc09fe7	1.5048798
210	0xbe162377	-0.14661966
211	0x3dbc1223	0.09183147
212	0x3fba6393	1.4561638
213	0xbf49697e	-0.78676593
214	0x3f0270b2	0.5095321
215	0xbe986843	-0.29767045
216	0xbf783311	-0.9695292
217	0xbe93fa3d	-0.28901854
218	0xbee95383	-0.45571527
219	0x3f53e395	0.8276914
220	0xbcfc34f0	-0.030786961
221	0xbdeef9d0	-0.11668742
222	0xbf7e9274	-0.9944222
223	0x3e0012a1	0.12507106
224	0x3f1bc211	0.60842997
225	0x3f8a1848	1.078866
226	0xbf5733d6	-0.8406347
227	0x3e1177eb	0.14205901
228	0x3f6e7422	0.93145955
229	0xbeb529a1	-0.35383323
230	0xbed04e43	-0.4068471
231	0xbeb6b662	-0.35686022
232	0xbf8c99e7	-1.0984467
233	0x3f8a673d	1.0812756
234	0x3e248aa8	0.16068518
235	0x3fa3ea1f	1.2805823
236	0xbf004e25	-0.5011924
237	0x3e9bdb4a	0.30440742
238	0xbea440cf	-0.32080695
239	0x3e9baddf	0.3040609
240	0x3ff7bb9e	1.9354131
241	0x3f40ff29	0.75389344
242	0x3e4f1518	0.2022289
243	0x3ea30ae6	0.31844252
244	0x3e683db8	0.22679794
245	0xbef55932	-0.47919613
246	0xbfb579dd	-1.4177815
247	0xbeafe41d	-0.34353724
248	0x3f9a6d74	1.2064652
249	0x3fb47f97	1.4101437
250	0xbf3a8835	-0.72864085
251	0x4036162b	2.845103
252	0x3f8cb9b8	1.0994177
253	0x3f100a84	0.56266046
254	0xbf152aa1	-0.5826817
255	0xbf027506	-0.50959814

fc3.bias f4 [4]
0	0xbe382c8c	-0.17985743
1	0xbc05be09	-0.008162984
2	0xbe0d85ed	-0.1382062
3	0x3e821fca	0.25414878

bn0.weight f4 [33]
0	0x3f2abed3	0.66697425
1	0x3eb44830	0.35211325
2	0x3f4f69bc	0.8102071
3	0x3d56ade6	0.052411936
4	0x3dbbc426	0.09168272
5	0x3d8342ff	0.06409263
6	0x3d99b7ce	0.07505761
7	0x3dde1045	0.10842947
8	0x3df891ca	0.12137182
9	0x3dc1b5d0	0.09458506
10	0x3e4d9652	0.20076874
11	0x3e245d2d	0.16051169
12	0x3e2f2570	0.17104125
13	0x3f91495e	1.1350515
14	0x3eecc02e	0.4624037
15	0x3f859775	1.0436846
16	0x3de38170	0.111086726
17	0x3dbacaa3	0.09120681
18	0x3d63d97f	0.055627342
19	0x3db32fcd	0.08749352
20	0x3e31d4aa	0.17366281
21	0x3dec8492	0.11548723
22	0xbdd1bafc	-0.102407426
23	0x3f087b50	0.5331316
24	0x3eb2ab30	0.3489623
25	0x3eec2680	0.46123123
26	0x3f72f29d	0.9490145
27	0x3f1ed82d	0.6204861
28	0x3f6ef028	0.933352
29	0x3f7f2da0	0.99678993
30	0x3e1ba318	0.15198934
31	0x3f2eac73	0.68231887
32	0x3f9d149e	1.2271917

bn0.bias f4 [33]
0	0xbc51dc2f	-0.0128088435
1	0xbbfbd6e4	-0.007685529
2	0x3c64794c	0.013944935
3	0xbb122202	-0.0022298102
4	0xbad5184d	-0.0016257853
5	0x3a70d6ec	0.00091872993
6	0xbc12c79e	-0.008958725
7	0xbbd98793	-0.006638476
8	0x3c64cf4d	0.01396544
9	0x3c6be8eb	0.014398794
10	0x3bac932e	0.0052665686
11	0xbb80766f	-0.0039203684
12	0xbc49fbf2	-0.012328135
13	0xbb3d64a9	-0.002889911
14	0xbb16b2af	-0.0022994687
15	0x3c10fb7a	0.008849019
16	0x3b047a22	0.0020214398
17	0x3979719c	0.00023788813
18	0xbbb8f391	-0.0056442698
19	0x3be6355b	0.0070254034
20	0xbbd1d314	-0.0064033363
21	0xbba1b515	-0.0049349167
22	0x3c48fd8c	0.012267482
23	0xbb4f3012	-0.0031614345
24	0xbb884935	-0.0041591176
25	0x3b53d762	0.0032324423
26	0x3b90c9df	0.004418596
27	0x3a9fc2d0	0.0012188796
28	0xbcb1f374	-0.021722533
29	0x3a546337	0.00081019424
30	0xb9492217	-0.00019181553
31	0xbb048ea4	-0.0020226622
32	0xbbca50f7	-0.0061742025

bn0.running_mean f4 [33]
0	0xbec46c6a	-0.38363963
1	0xc030de6c	-2.7635756
2	0x3d05d6bf	0.0326755
3	0x3f645b8a	0.8920218
4	0xbd428870	-0.0474934
5	0x3c2fd670	0.010732278
6	0x3bdd7caf	0.006759248
7	0xbc21a651	-0.009866313
8	0x3a6684ec	0.00087936106
9	0x38d2091a	0.000100152756
10	0x3c0bb8ea	0.008527974
11	0x3cada6be	0.021197673
12	0x3cd9b915	0.026577512
13	0xbec43dac	-0.38328302
14	0xc033c0cf	-2.808643
15	0xbd4a1e0e	-0.04934507
16	0x3c67f7a2	0.014158161
17	0x3cca18c6	0.024670016
18	0xbc285a9a	-0.010275507
19	0xbbbd9017	-0.005784999
20	0xbc91e62c	-0.01780995
21	0x3c806e28	0.015677527
22	0xbc04250b	-0.008065472
23	0xbc920230	-0.017823309
24	0x3e02b975	0.12766059
25	0xbcf6b7ea	-0.030116994
26	0x3d37aa48	0.044840127
27	0xbf7ffffc	-0.99999976
28	0x3cc64066	0.02420063
29	0x00000000	0.0
30	0x3f7ffffc	0.99999976
31	0x00000000	0.0
32	0x3ca3a132	0.019974325

bn0.running_var f4 [33]
0	0x4080d060	4.0254364
1	0x3ee62e9c	0.44957435
2	0x4072c3ec	3.7932081
3	0x3d1c0cf5	0.038098294
4	0x3d88ba73	0.06676187
5	0x3c4936a8	0.0122810975
6	0x3daddac3	0.08488991
7	0x3e6fbf8e	0.23412916
8	0x3d34f7aa	0.044181503
9	0x3dc52b58	0.09627408
10	0x3fef8bdc	1.8714557
11	0x3f40e309	0.7534643
12	0x400a434a	2.160357
13	0x4196a06e	18.828335
14	0x3fd4455a	1.6583664
15	0x419db755	19.714518
16	0x3dc0aabb	0.09407564
17	0x3e5fe220	0.21863604
18	0x3d89087f	0.066910736
19	0x3f1e90bb	0.6193959
20	0x3fd24709	1.6427928
21	0x3f19fa1e	0.60147274
22	0x3ef03037	0.46911785
23	0x40ed8975	7.4230294
24	0x4057ec48	3.3737965
25	0x40ff3c1d	7.976088
26	0x41feec7b	31.865469
27	0x00000004	6e-45
28	0x4200d562	32.20838
29	0x00000004	6e-45
30	0x00000004	6e-45
31	0x00000004	6e-45
32	0x3eb05ae6	0.3444435

bn1.weight f4 [128]
0	0x3f338c0b	0.70135564
1	0x3f574ffc	0.8410642
2	0x3f181d99	0.5942016
3	0x3f3e5be2	0.7435895
4	0x3f32928c	0.6975486
5	0x3f2d1626	0.6761192
6	0x3ece1e45	0.4025747
7	0x3f3c7631	0.73617846
8	0x3f4c4b48	0.7980237
9	0x3f5082e3	0.8144972
10	0x3f1f1c20	0.6215229
11	0x3f132f8e	0.5749444
12	0x3f892bb1	1.0716459
13	0x3f4ab3d7	0.79180664
14	0x3f3aac57	0.7291922
15	0x3e79fd0a	0.24412933
16	0xbbb157b9	-0.0054120687
17	0x3f521069	0.8205629
18	0x3f6a124d	0.91434175
19	0x3f6d7b06	0.92765844
20	0x3f65d223	0.8977377
21	0x3f44ef67	0.769278
22	0x3ed00c7f	0.40634534
23	0x3ee8548b	0.45377
24	0x3f071012	0.52758896
25	0x3eb5693f	0.3543186
26	0x3f176a0c	0.5914619
27	0x3f74dd8f	0.9565057
28	0x3f6b6512	0.91951096
29	0x3f41081f	0.75403017
30	0x3f577cd0	0.84174824
31	0x3f441bd0	0.7660494
32	0x3f409755	0.75230914
33	0x3f010417	0.50396866
34	0x3f80a3fb	1.0050043
35	0x3f01c76f	0.50694937
36	0x3f169203	0.58816546
37	0x3f07c8bc	0.5304067
38	0x3f21e885	0.6324542
39	0x3f2181ea	0.6308886
40	0x3f70aeb2	0.94016564
41	0x3f851030	1.0395565
42	0x3f0e1667	0.55502933
43	0x3f922fb6	1.142081
44	0x3f5cd955	0.8626912
45	0x3f1a61ee	0.6030568
46	0x3ef4530d	0.47719613
47	0x3f1e801d	0.61914235
48	0x3c324ad4	0.010882098
49	0x3ee26992	0.4422117
50	0x3f72fdbd	0.94918424
51	0x3f8722f3	1.0557541
52	0x3f6673f0	0.90020657
53	0x3f602e39	0.8757053
54	0x3f510e4e	0.8166245
55	0x3f3dea0e	0.74185264
56	0x3f547a3f	0.8299903
57	0x3f0a13be	0.53936374
58	0x3f200650	0.6250963
59	0x3f34ca62	0.7062131
60	0x3ee9849b	0.45608982
61	0x3eee8fcb	0.4659408
62	0x3f39e66e	0.7261723
63	0x3f15e307	0.5854954
64	0x3f429784	0.76012444
65	0x3f37d4fa	0.7180935
66	0x3f33e6f4	0.7027428
67	0x3f203490	0.62580204
68	0x3f3205d6	0.69540155
69	0x3eedae9d	0.46422282
70	0x3f66296c	0.89906955
71	0x3f7a5fd0	0.9780245
72	0x3f6f0244	0.9336283
73	0x3eace9da	0.33772165
74	0x3f087ad8	0.53312445
75	0x3f2343fe	0.6377562
76	0x3ef5258a	0.47880203
77	0x3f1dd1eb	0.61648434
78	0x3f5a2802	0.852173
79	0x3f5a3805	0.8524173
80	0x3f542017	0.82861465
81	0x3f34d71c	0.7064073
82	0x3f4cfd69	0.80074173
83	0x3aaea737	0.001332498
84	0x3f2bcacf	0.67106336
85	0x3f1df401	0.61700445
86	0x3f3be1d5	0.7339147
87	0x3f2e6603	0.6812441
88	0x3f1095ac	0.5647838
89	0x3f559862	0.8343564
90	0x3f0c64b0	0.54841137
91	0x3f607482	0.87677777
92	0x3f7775a0	0.96663857
93	0x3f4672cb	0.7751891
94	0x3f575482	0.84113324
95	0x3f121519	0.5706344
96	0x3e8bed1c	0.27329338
97	0x3f568174	0.8379128
98	0x3f202732	0.6255981
99	0x3f3a85a6	0.7286018
100	0x3f85e305	1.0459906
101	0x3ee18e62	0.44053942
102	0x3f2e61ec	0.68118167
103	0x3f87e51a	1.0616791
104	0x3f1871a0	0.5954838
105	0x3f084d01	0.532425
106	0x3f74003e	0.9531287
107	0x3f60ab3a	0.8776127
108	0x3f31a241	0.69388205
109	0x3f3599c1	0.70937735
110	0x3f59d8df	0.85096544
111	0x3f30aeb8	0.690166
112	0xbbc918e6	-0.0061370013
113	0x3f0cad2a	0.5495173
114	0x3f0ba6cb	0.5455138
115	0x3f3f10e9	0.7463518
116	0x3f3384ac	0.70124316
117	0x3f2ccb04	0.6749728
118	0x3f124a25	0.57144386
119	0x3f3f4202	0.74710095
120	0x3f391d69	0.723105
121	0x3f150f48	0.5822644
122	0x3f111044	0.56665444
123	0x3f14f5a1	0.581873
124	0x3f53146c	0.82453036
125	0x3f0ed8a9	0.5579935
126	0x3ee8101c	0.4532479
127	0x3f4e6e61	0.80637175

bn1.bias f4 [128]
0	0xbde0b901	-0.10972787
1	0xbea4231d	-0.3205804
2	0xbf026e47	-0.5094952
3	0xbed50b47	-0.41610166
4	0xbeb1f1a7	-0.3475468
5	0xbf27e148	-0.65578127
6	0xbbc8b75d	-0.006125374
7	0x3ea3783d	0.31927672
8	0xbde95ac8	-0.11394268
9	0xbe991cf0	-0.2990489
10	0xbeacafc7	-0.33727857
11	0xbeafd0cd	-0.3433899
12	0xbde12714	-0.10993782
13	0xbf15c813	-0.58508414
14	0xbec5a3f9	-0.38601664
15	0x3da7351a	0.08164425
16	0xbd823f57	-0.06359737
17	0xbe7a566a	-0.24447027
18	0xbef2de2c	-0.4743513
19	0xbf1bf420	-0.6091938
20	0xbf41884d	-0.75598603
21	0xbf106238	-0.5639987
22	0xbda5de1d	-0.08099005
23	0x3b8034d4	0.0039125476
24	0xbe51a413	-0.20472746
25	0x3e3df659	0.18551005
26	0xbf03ab94	-0.5143368
27	0xbebdd52f	-0.3707671
28	0x3c9df54d	0.019282008
29	0xbdcdcca4	-0.10048798
30	0xbd9261aa	-0.07147534
31	0xbf3250c3	-0.6965448
32	0xbe4fa94b	-0.20279424
33	0xbe8fc284	-0.2807809
34	0xbec9a8e0	-0.39386654
35	0xbedffa9c	-0.43745887
36	0xbe99fc61	-0.30075362
37	0xbe4c6fae	-0.19964477
38	0xbf0e05ba	-0.5547749
39	0xbf0fcc49	-0.5617109
40	0xbe45e116	-0.19324145
41	0xbf1f8a09	-0.6232
42	0xbe95b68d	-0.29240838
43	0xbdebc570	-0.115122676
44	0xbf0a4bcd	-0.5402191
45	0xbef4e257	-0.47828934
46	0xbd354101	-0.044251446
47	0xbec2596e	-0.37958854
48	0xbdd9ef0f	-0.106413
49	0xbdc103d2	-0.09424557
50	0xbebc47fe	-0.36773676
51	0xbf3304ca	-0.6992918
52	0xbefd1e83	-0.4943734
53	0xbf6554e6	-0.8958267
54	0xbddc6218	-0.107608974
55	0xbf0c157c	-0.5472028
56	0xbe2a42aa	-0.16626993
57	0xbd9f1c7e	-0.07769106
58	0xbefa06d4	-0.48833334
59	0xbeaa5710	-0.33269548
60	0x3d2f634d	0.04281931
61	0xbd7a50fb	-0.061112385
62	0xbeac5056	-0.3365504
63	0xbec8882d	-0.39166394
64	0xbcf0d659	-0.029399084
65	0xbef7a270	-0.48366117
66	0xbf8ab02d	-1.0835015
67	0xbe82ae99	-0.25523832
68	0xbeaf364f	-0.34221122
69	0x3df19852	0.11796631
70	0xbe4994d6	-0.19685683
71	0xbf08bf03	-0.5341646
72	0xbf1d1d74	-0.61373067
73	0x3eb0da94	0.34541762
74	0x3dded9dd	0.10881398
75	0xbf2b6750	-0.6695452
76	0x3ed53321	0.4164057
77	0x3e034217	0.1281818
78	0xbdef0f38	-0.116728246
79	0xbeb34bcc	-0.35018766
80	0xbee39e21	-0.4445658
81	0xbf4ff634	-0.8123505
82	0xbef1c75e	-0.47222418
83	0xbcc42a6d	-0.023946011
84	0xbf2ddfd0	-0.67919636
85	0x3ed18ccd	0.40927735
86	0xbe5e4654	-0.21706516
87	0xbe095cb3	-0.13414268
88	0x3e81d232	0.2535568
89	0xbdcb52f6	-0.09927933
90	0xbe8b8f5e	-0.27257818
91	0xbeb60832	-0.35553128
92	0x3e2d7fd5	0.16943295
93	0x3de5b38d	0.11215887
94	0xbee3959c	-0.4445008
95	0xbd9ae80f	-0.07563793
96	0x3e4afbd3	0.19822626
97	0xbea2a5c7	-0.31767103
98	0x3d3eec44	0.04661204
99	0xbeca5b13	-0.3952261
100	0xbf4cb1c8	-0.7995877
101	0x3c5cbb00	0.013472319
102	0x3c22495e	0.009905187
103	0xbf01bc5b	-0.5067803
104	0xbec749c4	-0.38923466
105	0xbeb7cf06	-0.35900134
106	0xbea1de1e	-0.31614774
107	0xbf087a7a	-0.53311884
108	0x3ead74a8	0.33878064
109	0xbea28a1b	-0.3174599
110	0xbec828f4	-0.39093745
111	0xbde87af6	-0.11351578
112	0xbd97efcf	-0.07418787
113	0xbd897415	-0.06711594
114	0x3c382f6d	0.011241776
115	0xbddafaec	-0.10692391
116	0xbe73576e	-0.2376382
117	0xbe595694	-0.21224433
118	0xbf522048	-0.8208051
119	0xbeb4d886	-0.35321444
120	0xbf3e0deb	-0.7423999
121	0x3c7875d0	0.015164807
122	0xbec6b28a	-0.3880809
123	0x3df3b698	0.11900061
124	0xbe8259cd	-0.25459138
125	0xbf2ae2b6	-0.66752183
126	0x3f76fd93	0.96480674
127	0xbec0d17b	-0.3765982

bn1.running_mean f4 [128]
0	0x3ca4c3ba	0.020112861
1	0x3b623a87	0.0034519748
2	0xbaf50d82	-0.0018696042
3	0x3d0981cd	0.033571053
4	0xbd22ef82	-0.039779194
5	0xbe185e9c	-0.1487984
6	0x3e2c8f67	0.16851579
7	0xbb70d2f8	-0.003674684
8	0x3dc7f6a9	0.097638436
9	0x3d5b6e21	0.053571824
10	0x3c9c9343	0.019113189
11	0xbe3d7f7c	-0.18505663
12	0x3e5215f9	0.20516194
13	0xbdc25f72	-0.09490861
14	0x3e2b2d32	0.1671646
15	0x3e3792c5	0.17927082
16	0x3db65d8b	0.08904561
17	0x3dabbcc7	0.08385616
18	0xbbe97397	-0.007124375
19	0x3e232664	0.15932614
20	0x3e1b3f0e	0.15160772
21	0xbd8aefb6	-0.067840025
22	0x3de7ec98	0.113244236
23	0xbe02916b	-0.12750785
24	0x3d6900ec	0.056885645
25	0x3e384030	0.17993236
26	0xbe2b13bc	-0.16706747
27	0xbe22e005	-0.15905769
28	0x3d141251	0.03615028
29	0x3d326511	0.043553416
30	0x3e0f0961	0.13968422
31	0xbe29397a	-0.16525832
32	0xbd110bfe	-0.035411827
33	0xbc7c0679	-0.015382403
34	0x3e1c8279	0.15284146
35	0xbcc70d72	-0.024298403
36	0x3dc9b178	0.098483026
37	0xbe189d6d	-0.14903803
38	0x3e14fbdd	0.14549203
39	0x3c4ef56f	0.012631758
40	0xbdf6d8bf	-0.1205306
41	0x3d0cd64e	0.034384064
42	0x3c956ee3	0.018241351
43	0xbe1aaa70	-0.15104079
44	0xbd1b31f0	-0.03788942
45	0x3ddb2325	0.10700063
46	0xbca8275b	-0.020526579
47	0xbd3521c7	-0.044221666
48	0x3c3aa914	0.01139285
49	0x3e0b87ea	0.13626066
50	0xbd7d6fa2	-0.06187404
51	0x3e145643	0.14486031
52	0xbd99b632	-0.07505454
53	0x3e1f9762	0.15585092
54	0xbe2650c9	-0.16241755
55	0xbe29a2fe	-0.16566083
56	0xbd3544b8	-0.04425499
57	0x3ca1db77	0.01975797
58	0xbc6fb194	-0.01462974
59	0xbd58beb8	-0.05291626
60	0xbd69a0fc	-0.057038292
61	0xbe065a7b	-0.13120453
62	0xbe1406c0	-0.144557
63	0x3dc25c2e	0.09490238
64	0xbdaed646	-0.08536963
65	0xbddda34e	-0.108221635
66	0x3dcfa4c6	0.1013885
67	0xbd0497d6	-0.032371365
68	0x3cf239d4	0.02956859
69	0x3db89264	0.09012297
70	0xbdaa44f8	-0.08313936
71	0xbdb553e1	-0.08853889
72	0x3c3faecb	0.011699389
73	0x3d4a9e09	0.04946712
74	0x3ca772e8	0.020440534
75	0xbd986e18	-0.07442874
76	0xbd644dbf	-0.055738207
77	0x3e1c162d	0.15242834
78	0x3d372003	0.044708263
79	0x3bdc6252	0.006725588
80	0x3d218168	0.039430052
81	0xbd99fb4e	-0.07518636
82	0x3d24636a	0.04013387
83	0xbe311f6c	-0.17297143
84	0x3d9186a3	0.07105758
85	0x3d86784e	0.06565915
86	0xbd97aaff	-0.07405662
87	0x3db8d834	0.090256125
88	0x3dc84534	0.097788244
89	0x3ded5393	0.11588206
90	0x3dca29ea	0.09871276
91	0xbe119385	-0.1421643
92	0xbe14e8d2	-0.14541939
93	0xbd963521	-0.07334352
94	0xbdd58eed	-0.104276516
95	0x3c9fffdf	0.019531189
96	0x3b36506e	0.0027818936
97	0x3da42393	0.08014598
98	0x3df26bee	0.11836992
99	0x3e0d6858	0.13809335
100	0xbd55e613	-0.05222137
101	0xbe29fdee	-0.16600773
102	0x3d833ad6	0.064077064
103	0x3d30ef2a	0.043196835
104	0xbe02f60b	-0.1278917
105	0xbe42a374	-0.19007665
106	0x3e16a663	0.14711909
107	0xbdf0307a	-0.11727996
108	0xbe1eb3d2	-0.15498284
109	0xbc2c0b6b	-0.010500769
110	0x3dd5cf8f	0.10439979
111	0x3dad5690	0.08463776
112	0x3c5ab9ee	0.013349993
113	0x3e129044	0.14312845
114	0xbe03be9d	-0.12865682
115	0xbdbf39ce	-0.09337197
116	0xbddc5e1b	-0.10760137
117	0x3dd1c703	0.102430366
118	0x3d67c92b	0.056588333
119	0xbdc8c30e	-0.09802829
120	0xba76058b	-0.0009384981
121	0xbe05e2f0	-0.13074851
122	0x3d80157d	0.062540986
123	0xbdb20e57	-0.08694141
124	0x3d3dcdab	0.04633872
125	0xbddfc5dd	-0.10926411
126	0xbd254c69	-0.040356074
127	0xbdcf0b05	-0.10109524

bn1.running_var f4 [128]
0	0x3f4c24af	0.79743475
1	0x3f576cd6	0.84150445
2	0x3f1e4fe8	0.6184068
3	0x4014a993	2.32285
4	0x3ea08891	0.31354192
5	0x3f61d788	0.882195
6	0x3eadf3f0	0.33975172
7	0x3ed59239	0.41713122
8	0x4001841f	2.023689
9	0x3fbb496a	1.4631779
10	0x3fe58f9e	1.7934453
11	0x3f8e7aeb	1.1131262
12	0x4042d53a	3.0442643
13	0x3edec5d8	0.43510318
14	0x3f212c5a	0.629583
15	0x3fc1238e	1.5088975
16	0x3c72dd0f	0.014823212
17	0x3eb01188	0.34388375
18	0x3ef283e7	0.47366259
19	0x4089ab9d	4.302199
20	0x3fbe3189	1.4858867
21	0x3fe38e8e	1.7777879
22	0x3f5b41fe	0.8564757
23	0x3f8e2a8b	1.1106733
24	0x3eb9a432	0.36258084
25	0x3eb4140a	0.3517154
26	0x3f1c746d	0.6111515
27	0x40289b85	2.6344922
28	0x3fefcd44	1.8734517
29	0x3ea17365	0.31533352
30	0x3e8a096b	0.2696031
31	0x3f4ceae3	0.8004591
32	0x3fa85a42	1.3152544
33	0x3f13ba1b	0.5770585
34	0x3ed1303a	0.40857106
35	0x3ec7b97d	0.39008704
36	0x3f654da1	0.8957158
37	0x3faa8166	1.3320739
38	0x401d614d	2.4590638
39	0x3f86bddf	1.0526694
40	0x409edfca	4.964818
41	0x3ff21183	1.8911594
42	0x3e7a2f96	0.24432215
43	0x409cf4f7	4.904903
44	0x3f2dd06e	0.67896163
45	0x3ec3e737	0.3826234
46	0x3f732475	0.94977504
47	0x3f89637b	1.0733484
48	0x3d3963d3	0.045261215
49	0x3e82b077	0.25525257
50	0x40124efc	2.2860708
51	0x4034e2d4	2.8263445
52	0x400b15ec	2.173213
53	0x4029a8b6	2.6509223
54	0x3f3bc778	0.7335124
55	0x3fa0d35e	1.2564504
56	0x3fd16a69	1.6360599
57	0x3fe39f0a	1.778291
58	0x3f8e1265	1.1099364
59	0x3f85b32d	1.0445305
60	0x3dba3132	0.090914145
61	0x3eaff1f9	0.34364298
62	0x3fd01654	1.6256814
63	0x3f634a1c	0.88784957
64	0x3efdf694	0.49602187
65	0x3dbc181a	0.091842845
66	0x400e391c	2.2222357
67	0x3eba9a96	0.36446065
68	0x3f2333fc	0.63751197
69	0x3f6a6b6c	0.9157016
70	0x3ecd74ab	0.40128073
71	0x3f3a5245	0.72781783
72	0x3f79d6d6	0.9759344
73	0x3e6b2919	0.22964896
74	0x3f1f40f0	0.6220846
75	0x3f806c5a	1.0033066
76	0x3eb11dcf	0.34593055
77	0x3ed3e10f	0.41382644
78	0x3f636397	0.8882384
79	0x3f21c582	0.63192
80	0x3e327627	0.17427884
81	0x3f49c5ce	0.7881745
82	0x3e9d4f2d	0.3072447
83	0x3c6aac72	0.014323341
84	0x3fb07218	1.3784819
85	0x3fb60a0d	1.4221817
86	0x3fabb7c7	1.3415459
87	0x3f8cbfb1	1.0996
88	0x3e4cb1c2	0.19989684
89	0x3ee283a1	0.4424105
90	0x3e481771	0.19540192
91	0x3f738906	0.95130956
92	0x405e59c8	3.4742298
93	0x3ff79a87	1.9344033
94	0x3e9d6eba	0.3074854
95	0x3f11c4f6	0.56941164
96	0x3eb9afdb	0.3626698
97	0x401c4b29	2.4420874
98	0x3f7ba33e	0.9829596
99	0x3e9ccb09	0.30623654
100	0x40a1e73b	5.0594764
101	0x3f2a3256	0.66483057
102	0x3f042a5f	0.51627153
103	0x401dac15	2.463628
104	0x3f02033c	0.50786185
105	0x3f2a6deb	0.6657397
106	0x3f7cb40d	0.98712236
107	0x3e58ea14	0.21183044
108	0x3e04c981	0.12967493
109	0x3f4ed157	0.8078818
110	0x4043390e	3.0503573
111	0x3fba8edd	1.4574848
112	0x3caa3719	0.020778226
113	0x3f436417	0.763246
114	0x3e6b0800	0.2295227
115	0x400d2b8f	2.2057836
116	0x4027b6ec	2.6205397
117	0x3f4e9610	0.8069773
118	0x3ef6a5f0	0.48173475
119	0x3f87779a	1.0583375
120	0x3f1eb0ed	0.6198872
121	0x3e03bc95	0.12864907
122	0x3f30481d	0.68860036
123	0x3f1848e5	0.5948623
124	0x3f6e93d1	0.931943
125	0x3f612baf	0.8795728
126	0x3e040b70	0.12894988
127	0x3f253478	0.64533186

bn2.weight f4 [128]
0	0x3f9f6fa7	1.2455949
1	0x3f1ddbef	0.6166372
2	0x3f8ec9b1	1.1155301
3	0x3f81324f	1.0093478
4	0x3f51f23b	0.8201024
5	0x3f5ba432	0.8579742
6	0x3f85352c	1.0406852
7	0x3f99c536	1.2013309
8	0x3f6090bc	0.8772085
9	0x3f6e6628	0.9312463
10	0x3f21f4b9	0.6326404
11	0x3f2822bd	0.65678006
12	0x3f83e039	1.0302802
13	0x3f3049e0	0.68862724
14	0x3f7613c0	0.96123886
15	0x3f8b8dc5	1.090264
16	0x3f3c4bad	0.7355297
17	0x3f4678ae	0.7752789
18	0x3f8030a5	1.0014845
19	0x3f7bddb3	0.9838516
20	0x3f4eea59	0.80826336
21	0x3f97ed62	1.1869318
22	0x3fb9254b	1.4464506
23	0x3f8e883b	1.1135324
24	0x3f90955c	1.1295581
25	0x3f871171	1.0552198
26	0x3f829b30	1.020361
27	0x3f5a4a25	0.85269386
28	0x3f4a7382	0.790825
29	0x3f25234e	0.64506996
30	0x3fa46a17	1.2844876
31	0x3f5bdd9f	0.8588504
32	0x3fb164d8	1.38589
33	0x3f684a1e	0.90738094
34	0x3f84d5af	1.0377711
35	0x3f606d4f	0.8766679
36	0x3f43453b	0.7627751
37	0x3f83ad48	1.0287256
38	0x3f8a46a8	1.0802813
39	0x3f2cb671	0.67465883
40	0x3fc03717	1.5016812
41	0x3fd6872d	1.6760002
42	0x3f7d33bb	0.9890706
43	0x3f65b731	0.8973265
44	0x3f9a3f56	1.2050579
45	0x3f8e4ad3	1.1116585
46	0x3f1b2783	0.60607165
47	0x3f9f8c8b	1.2464765
48	0x3f18451f	0.5948047
49	0x3f229fd7	0.63525146
50	0x3f95f8a0	1.1716499
51	0x3f9ab13d	1.2085339
52	0x3f2813f0	0.6565542
53	0x3fa531b4	1.2905793
54	0x3f811ffa	1.0087883
55	0x3f5dda19	0.86660916
56	0x3f57c01f	0.8427753
57	0x3f4b7297	0.79471725
58	0x3f5c950f	0.86164945
59	0x3f5e51e0	0.8684368
60	0x3f9414bd	1.1568829
61	0x3fa70e70	1.3051281
62	0x3f657728	0.89634943
63	0x3f4c7a6a	0.7987429
64	0x3f7ee06b	0.99561185
65	0x3f283df3	0.65719527
66	0x3f71503b	0.94263047
67	0x3f95a0eb	1.1689733
68	0x3fac49ff	1.3460082
69	0x3f112850	0.56702137
70	0x3fb0a2e7	1.3799714
71	0x3f2d746d	0.67755777
72	0x3f9c70d8	1.2221937
73	0x3f761d27	0.9613823
74	0x3f846e44	1.034615
75	0x3fa06aee	1.2532632
76	0x3f556266	0.8335327
77	0x3faf88ec	1.371366
78	0x3f8b8877	1.0901021
79	0x3fb0baa6	1.380696
80	0x3f68022f	0.9062833
81	0x3f8c7fca	1.0976498
82	0x3f155cc5	0.5834468
83	0x3f8683c6	1.0508964
84	0x3fb31978	1.3992147
85	0x3f36009c	0.7109468
86	0x3f11f3bb	0.5701253
87	0x3f69cbea	0.91326773
88	0x3f20e63c	0.6285131
89	0x3f1b65c3	0.6070215
90	0x3f34425d	0.7041376
91	0x3f8ed018	1.1157255
92	0x3f9e52a4	1.236897
93	0x3f58875d	0.8458155
94	0x3f7124f8	0.94197035
95	0x3f5c38a6	0.8602394
96	0x3f8699be	1.0515668
97	0x3f893648	1.071969
98	0x3f720792	0.945428
99	0x3fa2b51c	1.271152
100	0x3f6ce231	0.9253264
101	0x3fa46e97	1.2846249
102	0x3fa20782	1.2658541
103	0x3f81b3cb	1.0132993
104	0x3f33aded	0.70187265
105	0x3f762d8c	0.9616325
106	0x3f7c92c2	0.98661435
107	0x3fc29199	1.5200683
108	0x3f7f82d1	0.99808985
109	0x3f5d2307	0.8638157
110	0x3f91e978	1.1399374
111	0x3f7aecda	0.98017657
112	0x3f5edcd5	0.8705571
113	0x3f897194	1.0737786
114	0x3f4cc716	0.7999128
115	0x3f6e2c35	0.93036205
116	0x3f5cc367	0.8623566
117	0x3fa66210	1.2998676
118	0x3f6710a0	0.9025974
119	0x3f4800fe	0.78126514
120	0x3f7882a4	0.9707434
121	0x3fb32b59	1.3997604
122	0x3f658250	0.89651966
123	0x3f71e2df	0.944868
124	0x3f8cfe38	1.1015081
125	0x3f492be4	0.78582597
126	0x3f4a1706	0.7894138
127	0x3f767206	0.96267736

bn2.bias f4 [128]
0	0xbf5a6a10	-0.8531809
1	0xbf96c0eb	-1.1777624
2	0xbf26cb76	-0.65154207
3	0xbe2e71c6	-0.17035589
4	0xbf0654a2	-0.5247289
5	0xbf529da4	-0.8227179
6	0xbf75849b	-0.95905465
7	0xbef5c347	-0.48000547
8	0xbef0c3f1	-0.4702449
9	0xbf88fc1d	-1.0701939
10	0xbdbfc1c9	-0.093631335
11	0xbf02d2c1	-0.51102835
12	0xbf7a1e9f	-0.97702974
13	0xbf55734e	-0.83379066
14	0xbf3b68cd	-0.7320679
15	0xbf3f0dd8	-0.746305
16	0xbf29932b	-0.66240185
17	0xbf94b9e0	-1.1619225
18	0xbef02494	-0.46902907
19	0xbed82c10	-0.42221117
20	0xbeaa724c	-0.33290327
21	0xbf6bb046	-0.92065847
22	0xbf407781	-0.7518235
23	0xbfa71a65	-1.305493
24	0xbf5c7469	-0.8611513
25	0xbebd75c2	-0.37003905
26	0xbf9c087f	-1.2190093
27	0xbfb2b101	-1.3960267
28	0xbf992d29	-1.1966907
29	0xbeec68f9	-0.46173838
30	0xbf7183fc	-0.9434202
31	0xbfe20ac1	-1.7659532
32	0xbec83a2b	-0.3910688
33	0xbf3ead3b	-0.7448308
34	0xbf49852f	-0.7871885
35	0xbfbcec9c	-1.4759707
36	0xbed53a1e	-0.41645902
37	0xbe82c97d	-0.25544348
38	0xbf272883	-0.6529619
39	0xbf9e9fc6	-1.2392509
40	0xbfb77430	-1.4332333
41	0xbf767c23	-0.9628317
42	0xbf029c6c	-0.5101993
43	0xbf3848d2	-0.71986115
44	0xbf45a947	-0.7721142
45	0xbf3bbce2	-0.7333509
46	0xbef264ed	-0.47342625
47	0xbf12a402	-0.57281506
48	0xbecc1b0d	-0.39864388
49	0xbf988b8e	-1.1917589
50	0xbfdfa9b6	-1.7473667
51	0xbf14b30f	-0.5808572
52	0xbf978938	-1.1838751
53	0xbf3915d9	-0.7229896
54	0xbf5d9fbc	-0.8657186
55	0xbfb34eab	-1.4008383
56	0xbfaa9498	-1.3326597
57	0xbea9f6ee	-0.33196205
58	0xbf8dbb81	-1.1072847
59	0xbeaa53c8	-0.33267045
60	0xbf0e849a	-0.55671084
61	0xbfe9097c	-1.8206019
62	0xbf2231df	-0.6335735
63	0xbf5fed0b	-0.87471074
64	0xbf873327	-1.0562485
65	0xbebb9bfa	-0.36642438
66	0xbeed117a	-0.46302396
67	0xbf2d0ee1	-0.6760083
68	0xbf352e88	-0.70774126
69	0xbea78cdc	-0.32724655
70	0xbfb10173	-1.3828567
71	0xbf8e37cd	-1.1110779
72	0xbf818cb3	-1.0121063
73	0xbf5fb01e	-0.8737811
74	0xbfbdadbf	-1.4818648
75	0xbfa16463	-1.260876
76	0xbf279f52	-0.6547748
77	0xbf2f8ea9	-0.6857706
78	0xbf7d8778	-0.99034834
79	0xbf96231b	-1.1729463
80	0xbf044aed	-0.5167683
81	0xbf4c2ec1	-0.7975884
82	0xbf0b0ee8	-0.5431962
83	0xbf533ef1	-0.82517916
84	0xbf366d9c	-0.71261
85	0xbf581e5c	-0.84421325
86	0xbe06d27b	-0.1316623
87	0xbf009949	-0.50233895
88	0xbf9e0a1e	-1.2346838
89	0xbec39ea3	-0.38206968
90	0xbf5ef148	-0.87086916
91	0xbf7ee219	-0.9956375
92	0xbf211143	-0.62916964
93	0xbe6de3f4	-0.23231488
94	0xbe40e04e	-0.18835565
95	0xc00a1022	-2.1572347
96	0xbf2368fb	-0.6383206
97	0xbfd85e78	-1.690383
98	0xbeb92e3f	-0.36168095
99	0xbf6459e7	-0.8919968
100	0xbfeec7a3	-1.8654674
101	0xbf41c1a9	-0.75686127
102	0xbebefca8	-0.37302136
103	0xbea31691	-0.31853154
104	0xbfa756a0	-1.3073311
105	0xbfb5b51d	-1.4195896
106	0xbe99a56c	-0.3000902
107	0xbeca3e83	-0.39500818
108	0xbf898572	-1.0743849
109	0xbed84f7e	-0.42248148
110	0xbf34618d	-0.7046135
111	0xbf0ba360	-0.54546165
112	0xbffb1cea	-1.9618199
113	0xbfe7ef51	-1.8119909
114	0xbf40690a	-0.75160277
115	0xbf02ea85	-0.511391
116	0xbf6b7e90	-0.91989994
117	0xbfb0ab3d	-1.3802258
118	0xbf87e88b	-1.0617841
119	0xbef8d0b1	-0.4859672
120	0xbf9f60f0	-1.2451458
121	0xbf6a42f2	-0.915084
122	0xbf18f107	-0.5974278
123	0xbfe16bec	-1.761106
124	0xbfa12258	-1.2588606
125	0xbea3571f	-0.31902406
126	0xbecc4dbe	-0.39903063
127	0xbf8ff66c	-1.1247077
