checkpoint_critic_new.pth (torch_old, 87870 bytes, 9 tensors)

fcs1.weight f4 [128, 33]
0	0xbdfd00dc	-0.123536795
1	0x3dca8dee	0.09890352
2	0xbe0477c2	-0.12936309
3	0xbf00724b	-0.501744
4	0x3f262e15	0.64914066
5	0xbe2c267a	-0.16811553
6	0x3ed16024	0.40893662
7	0xbd2f656e	-0.04282134
8	0x3e20c86c	0.15701455
9	0xbedb0703	-0.42778787
10	0x3e0a64ef	0.13515066
11	0xbc8d1e38	-0.017226323
12	0x3e445400	0.19172668
13	0x3f164412	0.5869762
14	0xbd44771e	-0.04796516
15	0xbe0a6dda	-0.13518468
16	0x3ec7e7d7	0.39044067
17	0xbcfdeefa	-0.030997742
18	0xbc395fe5	-0.011314367
19	0x3cd34a58	0.025792286
20	0xbd3fd2cf	-0.046831902
21	0x3e70cb6d	0.23515101
22	0xbe2e4c58	-0.1702131
23	0x3d3ed460	0.046589255
24	0xbddc38c8	-0.10753018
25	0xbcd4b62d	-0.025965774
26	0xbdb9c037	-0.09069865
27	0x3f6dddb5	0.92916423
28	0x3d2928e9	0.04129878
29	0xbd05e544	-0.032689348
30	0xbf6bf121	-0.9216481
31	0xbc257c70	-0.010100469
32	0x3f4cb288	0.7995992
33	0xbe719e4d	-0.23595543
34	0xbf44e110	-0.7690592
35	0x3ddf5dc3	0.109065555
36	0xbddccbd3	-0.10781064
37	0xbebd0bed	-0.3692316
38	0xbe1c7b3b	-0.15281384
39	0x3ce2456c	0.027620994
40	0xbeb7ea9d	-0.35921183
41	0xbf14dde3	-0.5815107
42	0xbd319f06	-0.043364547
43	0xbe3a42a1	-0.1818948
44	0xbdd26d79	-0.102747865
45	0x3bf12e12	0.0073602283
46	0x3e037fb6	0.12841687
47	0x3f0f406e	0.55957687
48	0x3dd43e20	0.10363412
49	0xbdd0c291	-0.101933606
50	0xbc850f14	-0.016242541
51	0xbe321eda	-0.17394581
52	0xbd65077b	-0.055915337
53	0x3e50b01b	0.20379679
54	0xbd8e445d	-0.06946633
55	0x3dbffd73	0.093745135
56	0x3e0fe690	0.14052796
57	0x3e4b6850	0.19864011
58	0x3d8fca83	0.07021048
59	0xbd81ad3f	-0.06331872
60	0x3ea90190	0.33009005
61	0x3e0bce2d	0.13652869
62	0xbd828a46	-0.0637403
63	0xbe9e1cfa	-0.30881482
64	0xbc3100d0	-0.010803416
65	0x3f060e02	0.52365124
66	0x3ed4c324	0.4155513
67	0x3e2e5661	0.17025138
68	0x3e12590e	0.14291784
69	0xbebc66dc	-0.36797225
70	0x3e3d4e10	0.1848681
71	0xbe9a5169	-0.30140236
72	0xbdf1ae25	-0.118007936
73	0xbd81d9dd	-0.06340382
74	0xbb32dcf3	-0.002729234
75	0x3db297c8	0.08720356
76	0xbdd18303	-0.102300666
77	0x3ccd5f07	0.025069727
78	0xbd522cd1	-0.05131227
79	0xbf2cfb19	-0.67570645
80	0x3e05a808	0.1305238
81	0xbebe1def	-0.37132213
82	0xbd6083b3	-0.0548131
83	0x3e605cf3	0.21910457
84	0x3ef3adc2	0.47593504
85	0x3e4e7e61	0.20165397
86	0xbd5f0310	-0.05444628
87	0xbd074148	-0.03302124
88	0x3d5d9469	0.054096613
89	0xbdf7c3f1	-0.1209792
90	0x3ceea77e	0.0291326
91	0x3ced6b0d	0.02898171
92	0x3ecc085a	0.39850122
93	0x3ea2542f	0.31704852
94	0x3e14bbb9	0.14524736
95	0xbd62d7af	-0.055381473
96	0xbec8ec71	-0.3924289
97	0xbd2ca1f7	-0.04214665
98	0xbffbe653	-1.9679664
99	0xbe53f31a	-0.20698205
100	0xbf0b3e8d	-0.5439232
101	0x3e9cb3fd	0.3060607
102	0xbdef4646	-0.116833255
103	0xbdb45aca	-0.08806379
104	0xbd371c30	-0.044704616
105	0xbe0c7f08	-0.13720334
106	0x3e03480b	0.12820451
107	0x3d17133b	0.036883574
108	0x3e9c36ff	0.3051071
109	0x3d0b6855	0.034035046
110	0x3e5953eb	0.21223418
111	0x3ed25805	0.4108278
112	0x3e0b7472	0.13618639
113	0x3f0bff1a	0.5468613
114	0xbe169009	-0.14703383
115	0x3ed5c1c8	0.41749406
116	0x3b57d1c8	0.0032931436
117	0xbdf96009	-0.121765204
118	0x3c825636	0.01591025
119	0xbcf49f38	-0.029861078
120	0xbcb8c414	-0.022554435
121	0x3e39b291	0.18134524
122	0x3c2ddb3a	0.01061135
123	0xbdc3828f	-0.095463865
124	0x3cf9fb44	0.03051532
125	0xbd2df975	-0.04247423
126	0x3d99a838	0.07502788
127	0x3e2a25f8	0.16616046
128	0xbd91cb90	-0.071189046
129	0xbd78f3d8	-0.060779423
130	0x3d85813f	0.06518792
131	0xbf22367c	-0.63364387
132	0xbb7a3e52	-0.0038184118
133	0x3e6c4a27	0.23075162
134	0xbddeb198	-0.10873717
135	0xbdb73ef1	-0.08947552
136	0xbdcce0b3	-0.100037955
137	0xbe886078	-0.266361
138	0x3e6b67c1	0.22988798
139	0xbd6eaf14	-0.058272436
140	0x3ed7abe4	0.4212333
141	0xbd0a5a60	-0.033777595
142	0xbe15ed48	-0.14641297
143	0xbca61a5a	-0.020276237
144	0x3d40f8e3	0.047112357
145	0xbe9ef099	-0.31042936
146	0xbdd62d6f	-0.104578845
147	0x3e7d2d8f	0.2472441
148	0xbd9a8438	-0.0754475
149	0x3e7ee955	0.24893697
150	0x3d870d99	0.065943904
151	0xbd06e64c	-0.032934472
152	0x3dc3bf38	0.095579565
153	0xbcdbbdaa	-0.026823837
154	0x3d026fce	0.031844907
155	0xbe551931	-0.20810391
156	0xbdc36ae9	-0.09541876
157	0x3d5470d1	0.051865403
158	0x3db59b18	0.088674724
159	0x3efd6cde	0.49497122
160	0xbeb238ee	-0.3480906
161	0xbda5a4d6	-0.080880806
162	0xbf12699f	-0.57192415
163	0x3c3845a0	0.011247069
164	0xc0205814	-2.5053759
165	0x3d9d577c	0.07682702
166	0x3ebfbf51	0.3745065
167	0xbe835d16	-0.25656956
168	0xbeb8a5f2	-0.36064106
169	0x3cb0aeec	0.021567784
170	0x3d023e22	0.031797536
171	0x3e788e7a	0.242731
172	0x3c98d88f	0.01865795
173	0xbf1593c3	-0.5842859
174	0x3e49835f	0.1967902
175	0x3e234899	0.15945663
176	0xbdd2d363	-0.10294225
177	0x3d31cc2e	0.04340761
178	0xbebec18b	-0.37257037
179	0xbd819ade	-0.06328367
180	0x3e852b12	0.26009423
181	0xbde04542	-0.1095071
182	0x3e0c3485	0.1369191
183	0x3de4e575	0.11176578
184	0xbd8902a1	-0.066899545
185	0xbd2aa10f	-0.041657504
186	0x3e9c9e8c	0.30589712
187	0xbd173577	-0.036916222
188	0x3dc0b5fb	0.0940971
189	0xbb2010d4	-0.0024424093
190	0x3ec9d252	0.39418274
191	0xbe3e7464	-0.18599087
192	0x3f2e506a	0.6809145
193	0xbe144efd	-0.14483257
194	0xbc9a6cf4	-0.018850781
195	0xbf0f8a1e	-0.56070125
196	0xbcd81f98	-0.026382253
197	0xbfb5c30b	-1.4200147
198	0xbd0c3cc9	-0.034237657
199	0x3e2f47c2	0.17117217
200	0xbebce199	-0.36890867
201	0x3d9255a6	0.071452424
202	0x3e8ba75e	0.2727613
203	0x3ea94ded	0.33067265
204	0xbcfdaa4e	-0.030964997
205	0xbd60cdae	-0.05488365
206	0x3eaf45f3	0.34233055
207	0x3e437285	0.19086654
208	0xbc4d5d33	-0.012534427
209	0x3e12ca45	0.14334972
210	0x3dab1583	0.083537124
211	0x3d7fa521	0.06241334
212	0x3c89e06c	0.016830646
213	0x3f3a9b17	0.728929
214	0xbdb8338f	-0.08994209
215	0xbdb78f09	-0.08962829
216	0xbc003d30	-0.007827088
217	0x3e39dcac	0.18150586
218	0x3cec3f43	0.02883876
219	0xbe2ee20f	-0.17078422
220	0x3d75cf93	0.06001241
221	0x3e1cae4f	0.15300868
222	0x3cb61868	0.022228435
223	0x3e22db05	0.15903862
224	0xbe39e854	-0.18155032
225	0x3edd09fa	0.43171674
226	0xbee436f3	-0.44573173
227	0x3d0b880a	0.034065284
228	0xbeb9ef08	-0.3631518
229	0x3d4049a6	0.046945237
230	0xbfbf7e0b	-1.496034
231	0xbe1f1cb3	-0.15538292
232	0x3eb0b475	0.34512678
233	0xbc8fb82e	-0.017543878
234	0xbe3edcc4	-0.18638903
235	0xbf0390c9	-0.513928
236	0xbd99be0e	-0.07506953
237	0x3da55bc5	0.08074144
238	0xbc5fca5d	-0.013659087
239	0xbf23a97d	-0.63930494
240	0xbd3c2686	-0.045935176
241	0x3d6e1870	0.058128774
242	0x3e888ce9	0.26670006
243	0x3e7b6d3d	0.2455339
244	0x3e095bf9	0.13413991
245	0xbd8e5171	-0.069491275
246	0x3ebfeb97	0.37484428
247	0x3d536322	0.051608212
248	0xbdf9e14b	-0.12201174
249	0x3e262046	0.16223249
250	0xbe2d8548	-0.16945374
251	0x3cb5059f	0.022097407
252	0xbd1c83bf	-0.03821158
253	0xbd7a0f5b	-0.0610498
254	0x3d4bf8ed	0.04979794
255	0x3dcadf20	0.09905839

fcs1.bias f4 [128]
0	0xbf55c2ef	-0.8350057
1	0xbe9afd2e	-0.30271286
2	0xbeb824ae	-0.35965484
3	0xbc357f84	-0.011077765
4	0xbf14f059	-0.5817924
5	0xbf4667d5	-0.77502185
6	0xbe545e75	-0.20739157
7	0xbf6c900d	-0.92407304
8	0xbe735552	-0.23763016
9	0xbf3704de	-0.714918
10	0xbec881f0	-0.39161634
11	0xbf062ed7	-0.5241522
12	0xbe637473	-0.2221239
13	0xbf19ad3b	-0.60029954
14	0xbf1609c5	-0.5860866
15	0x3dbafdb2	0.0913042
16	0xbeeaa0f2	-0.45825917
17	0xbf1b1193	-0.6057369
18	0xbf4816a1	-0.7815953
19	0x3dbfe7c7	0.0937038
20	0xbe6d39e4	-0.23166615
21	0xbf0b9a08	-0.5453191
22	0xbe9226cc	-0.28545225
23	0xbf2e8362	-0.68169224
24	0xbedf7506	-0.4364397
25	0xbee318ae	-0.44354767
26	0xbf0f5d8e	-0.5600213
27	0xbe1d445f	-0.15358113
28	0xbeac2690	-0.3362317
29	0xbf0026f0	-0.50059414
30	0xbdd7dfa9	-0.10540707
31	0xbf182d3b	-0.59444016
32	0xbf13c098	-0.5771575
33	0xbec39790	-0.3820157
34	0xbe06aeb9	-0.13152589
35	0xbf377b6e	-0.71672714
36	0xbe1ce455	-0.15321477
37	0xbebb5284	-0.36586392
38	0xbf025783	-0.5091478
39	0xbd680987	-0.05664971
40	0xbeb08e98	-0.3448379
41	0xbe8a7d34	-0.27048647
42	0xbebe1fc8	-0.37133622
43	0xbf7fe5b8	-0.999599
44	0xbf446a75	-0.7672494
45	0xbefd0069	-0.49414375
46	0xbe8c2e5e	-0.27379125
47	0xbe9cd17a	-0.30628568
48	0xbf0cbd90	-0.5497675
49	0xbe15d2dc	-0.14631218
50	0xbe53490a	-0.20633331
51	0xbef54cc6	-0.47910136
52	0xbe097bd8	-0.13426149
53	0xbe4a1903	-0.19736104
54	0xbf83bf1b	-1.0292696
55	0xbf25305d	-0.6452692
56	0xbf76982d	-0.9632595
57	0xbeddf683	-0.43352136
58	0xbe22cc15	-0.15898164
59	0xbe8c94f7	-0.274574
60	0xbf0e66cb	-0.556256
61	0xbf6000c4	-0.8750117
62	0xbe51dfbb	-0.20495503
63	0xbed16571	-0.40897706
64	0xbf128e0d	-0.57248
65	0xbefdbac4	-0.49556553
66	0xbd3a5ceb	-0.04549877
67	0xbf2e6fc2	-0.6813928
68	0xbf26fc69	-0.652289
69	0x3e824244	0.25441182
70	0xbf2f718f	-0.6853265
71	0xbef1c8bd	-0.47223464
72	0x3ee6abe3	0.45053014
73	0xbec5b25b	-0.38612637
74	0xbf148515	-0.5801557
75	0xbefa66d0	-0.48906565
76	0xbdc1d522	-0.0946448
77	0xbd8cf792	-0.06883158
78	0x3f11875b	0.5684716
79	0xbf0e0d17	-0.55488724
80	0xbcac437e	-0.021028277
81	0xbe876b4b	-0.26449046
82	0xbf0e2d1c	-0.5553758
83	0xbf0b0ae6	-0.54313505
84	0xbea6335b	-0.32461056
85	0x3e14651f	0.144917
86	0xbebcc0ec	-0.36865938
87	0x3ace45ce	0.0015737356
88	0x3d8d2dde	0.06893514
89	0xbea8d6da	-0.3297642
90	0xbd60ca33	-0.054880332
91	0xbf3bbabf	-0.73331827
92	0xbf055172	-0.520774
93	0xbf2b273a	-0.6685673
94	0xbf3b5dce	-0.7319001
95	0xbe85dc40	-0.261446
96	0xbea476e9	-0.3212197
97	0x3eaccbc2	0.33749205
98	0xbd9ab41f	-0.075538866
99	0x3c70dee8	0.0147015825
100	0xbe9fc1f4	-0.31202662
101	0xbf8966de	-1.0734518
102	0xbefa0bb0	-0.48837042
103	0xbd5df90f	-0.0541926
104	0xbeeac374	-0.45852244
105	0xbea0efc8	-0.3143294
106	0xbf21b366	-0.63164365
107	0xbf0277a7	-0.50963825
108	0xbf0d1215	-0.55105716
109	0xbf25e0ab	-0.6479594
110	0xbf051751	-0.51988703
111	0xbe8616ed	-0.26189366
112	0xbf279fd9	-0.65478283
113	0xbe5bfa33	-0.21482162
114	0xbe220cb4	-0.15825158
115	0xbea0ebaa	-0.31429797
116	0xbf687e64	-0.90817857
117	0xbe7a37eb	-0.24435394
118	0xbe72ed5e	-0.23723361
119	0xbf383b2d	-0.71965295
120	0xbebdece3	-0.37094793
121	0x3f2782f9	0.65434223
122	0xbeabe2e3	-0.33571538
123	0xbf00f453	-0.5037281
124	0xbf1b9ebb	-0.6078908
125	0xbf40abb3	-0.7526199
126	0xbf2e7b11	-0.68156534
127	0xbf296761	-0.6617337

fc2.weight f4 [128, 132]
0	0xbe22c705	-0.15896232
1	0xbda6624d	-0.08124218
2	0xbe4383cb	-0.19093244
3	0xbd408a06	-0.04700663
4	0x3cffb3a9	0.031213598
5	0xbd245364	-0.04011859
6	0xbcd15e91	-0.025557788
7	0x3d13fb9c	0.036128625
8	0xbc57b9a5	-0.01316682
9	0xbcee0a06	-0.029057514
10	0x3a17050d	0.00057609455
11	0x3b6dd86a	0.0036292323
12	0xbe15a72b	-0.14614551
13	0xbd349ae0	-0.044093013
14	0x3b57bac0	0.0032917708
15	0xbe17cd86	-0.14824495
16	0x3c4d7735	0.012540628
17	0x3cec6598	0.028857037
18	0xbd215d37	-0.039395537
19	0xbd2d5c77	-0.04232451
20	0x3d3abd7c	0.045590863
21	0xbe1549d5	-0.14578946
22	0xbdf69c9d	-0.1204159
23	0x3d08c61e	0.033392064
24	0xbdcc703f	-0.09982347
25	0xbdfcf026	-0.12350492
26	0xbd5a02f6	-0.05322548
27	0xbdb21c24	-0.08696774
28	0xbc88a291	-0.01667908
29	0xbe191fd8	-0.14953554
30	0xbb42d9a8	-0.0029731784
31	0xbbef6bc3	-0.0073065474
32	0xbdd5faaa	-0.10448201
33	0x3c98d75f	0.018657384
34	0xbdd50fef	-0.1040343
35	0xbe32a56d	-0.17445917
36	0xbe08b48c	-0.13350123
37	0x3c5bd2a6	0.013416922
38	0xbdb7fb53	-0.08983483
39	0xbd4c9a71	-0.049951974
40	0xbbaffb49	-0.0053705317
41	0xbc41e950	-0.011835411
42	0xbd0ea5b6	-0.034826003
43	0xbd99fd3a	-0.07519002
44	0xbd8c0cf6	-0.068384096
45	0xbd0878d2	-0.03331835
46	0xbd6d5f51	-0.05795223
47	0xbc159e80	-0.009132028
48	0xbe3bf1e3	-0.18353991
49	0xbdf6815c	-0.12036392
50	0xbe22e62b	-0.15908115
51	0x3c7beab7	0.015375785
52	0xbe0c36d5	-0.13692792
53	0x3c744d01	0.014910937
54	0xbda1ddc2	-0.07903625
55	0x3caa756a	0.02080794
56	0xbe0e1345	-0.13874538
57	0xbda69d2a	-0.081354454
58	0xbd5dcbfa	-0.054149605
59	0xbc45806b	-0.012054543
60	0xbc7b41d3	-0.015335518
61	0xbdd5a810	-0.10432446
62	0xbc494fa0	-0.0122870505
63	0xbd9e5370	-0.07730758
64	0xbe190761	-0.14944221
65	0x3d5e1f4d	0.05422907
66	0xbdcecdad	-0.10097823
67	0xbe339893	-0.17538671
68	0xbc5250ef	-0.012836679
69	0x3b9d42e9	0.004799236
70	0xbe0f6e58	-0.14006937
71	0xbdd692ca	-0.104772165
72	0xbd93b94b	-0.07213076
73	0xbdca921f	-0.09891152
74	0xbd050c34	-0.03248234
75	0xbe1d42b2	-0.15357473
76	0xbe2b01ef	-0.16699956
77	0x3cb1fb98	0.021726415
78	0x3cc0e805	0.023548136
79	0xbd8c1b45	-0.06841139
80	0xbdd617b6	-0.10453741
81	0xbd41a867	-0.04727974
82	0xbdf1c10f	-0.11804401
83	0xbbb86fda	-0.005628568
84	0xbe083d0a	-0.13304535
85	0xbdd378ba	-0.10325761
86	0xbe2e1b99	-0.17002715
87	0xba25da8a	-0.00063268153
88	0xbda219d9	-0.07915086
89	0x3b85abf3	0.004079336
90	0xbd19a3a6	-0.037509583
91	0xbde196d9	-0.110151
92	0xbced0555	-0.028933207
93	0xbdb23a2c	-0.08702502
94	0x3c3a509d	0.011371759
95	0xbd199e95	-0.03750475
96	0xbd3a370f	-0.045462664
97	0x3d18230d	0.037142802
98	0xbe02a74f	-0.12759136
99	0xbdb903b0	-0.090339065
100	0xbd91952a	-0.07108529
101	0xbaa676c5	-0.0012700191
102	0xbde328b1	-0.11091746
103	0xbcb9bf60	-0.022674263
104	0xbe0eef88	-0.13958561
105	0x3c80d4c5	0.015726456
106	0xbd176717	-0.03696355
107	0xbc6df0fc	-0.014522787
108	0xbd93471b	-0.07191297
109	0xbe409fdb	-0.1881098
110	0xbd028ac1	-0.031870607
111	0x3d1284d6	0.035771213
112	0x3d2830a2	0.041062005
113	0xbe4c4649	-0.19948687
114	0xbd90466e	-0.070446834
115	0xbdc599c6	-0.096484706
116	0x3d99a883	0.07502844
117	0xbe12b6eb	-0.1432759
118	0xbe0e10a6	-0.13873538
119	0xbcfc9c69	-0.0308363
120	0xbd42140b	-0.047382396
121	0x3c002fe6	0.00782392
122	0x3d1cb33c	0.03825687
123	0x3d2a1082	0.04151965
124	0xbdb66bb5	-0.08907262
125	0x3b3002e9	0.0026857203
126	0xbd9ea5a5	-0.07746438
127	0xbd996863	-0.07490613
128	0xbba24ba6	-0.0049528657
129	0xbd2cb5ca	-0.042165555
130	0x3d4de7dd	0.05026995
131	0xbd074204	-0.03302194
132	0xbda22ffe	-0.0791931
133	0xbd93a207	-0.07208639
134	0xbb086822	-0.002081402
135	0xbab43268	-0.0013747932
136	0xbd0e146e	-0.034687452
137	0xbc8f89a1	-0.017521681
138	0xbcd951d4	-0.026528277
139	0xbc94b978	-0.018154845
140	0xbd5a4f40	-0.053298235
141	0xbdaa7249	-0.083225794
142	0x3cc7412e	0.024323072
143	0xbce49300	-0.027902126
144	0x3d79ef92	0.061019488
145	0xbe4a8c6b	-0.19780128
146	0xbc6deb37	-0.014521412
147	0xbdca85b0	-0.0988878
148	0xbdd91c34	-0.106010824
149	0xbdf36b35	-0.118856825
150	0xbd175b00	-0.03695202
151	0xbdeb977b	-0.11503502
152	0xbe2983ef	-0.16554235
153	0xbdb5b04b	-0.08871516
154	0xbd262b75	-0.040568788
155	0x3cf17979	0.029476868
156	0xbe2f4bac	-0.1711871
157	0x3d050f8a	0.032485522
158	0xbdb39305	-0.08768276
159	0x3d5d3545	0.05400588
160	0xbd8cf45a	-0.06882544
161	0xbd746d7e	-0.059674732
162	0xbd4997ad	-0.049216915
163	0xbd0ca530	-0.034337223
164	0x3c0526ef	0.008126958
165	0xbcbb79fd	-0.022885317
166	0xbde859f0	-0.11345279
167	0x3c2fb50b	0.010724316
168	0xbdde4acd	-0.10854111
169	0x3ce0ccc4	0.02744139
170	0xbe15dc53	-0.14634828
171	0x3c763ded	0.015029413
172	0xbe4ae352	-0.19813278
173	0xbbcd7a56	-0.006270687
174	0x3c191144	0.009342495
175	0x3c90c8a5	0.0176738
176	0xbcf66c40	-0.030080914
177	0xbdeced92	-0.115687504
178	0xbdcc6c26	-0.09981565
179	0xbe68944a	-0.22712818
180	0xbdcf69de	-0.101276144
181	0x3b5296f7	0.003213344
182	0xbe402dd0	-0.18767476
183	0xbd501fce	-0.05081158
184	0xbd33251c	-0.043736562
185	0xbdb878b1	-0.09007395
186	0xbe0444d6	-0.12916884
187	0xbdc42fd9	-0.09579439
188	0xbd1f66ca	-0.038916387
189	0xbe3f8187	-0.18701755
190	0x3e0f8739	0.14016427
191	0xbe158d5c	-0.14604706
192	0xbe35df5c	-0.17760986
193	0x3cd56ef8	0.02605389
194	0xbd233250	-0.039842904
195	0x39a2b3d9	0.00031033045
196	0xbddf1175	-0.108920015
197	0xbe279f66	-0.163694
198	0xbdbb4971	-0.09144867
199	0x3d47de50	0.048795998
200	0xbde9ff13	-0.11425605
201	0xbd985d0c	-0.07439622
202	0xbd35b018	-0.04435739
203	0xbdf249d9	-0.118304916
204	0xbcf8a9d2	-0.030354414
205	0xbc79446a	-0.015214065
206	0xbdbf97dd	-0.093551375
207	0xbc151492	-0.009099143
208	0x3d52a9a6	0.05143132
209	0xbd1732db	-0.036913734
210	0xbe0e3ac0	-0.13889599
211	0xbde23b8a	-0.110465124
212	0xbd5080d7	-0.05090412
213	0xbd9661c5	-0.07342867
214	0xbc4a58a3	-0.012350234
215	0xbd94fd2d	-0.07274852
216	0xbdb5b156	-0.08871715
217	0xbdb295f4	-0.087200075
218	0xbe4762c4	-0.1947127
219	0xbd699ee8	-0.05703631
220	0xbe330f9a	-0.1748642
221	0xbdd8729b	-0.10568734
222	0xbe1a3bbf	-0.15061854
223	0xbdece73d	-0.11567543
224	0xbdd4ceff	-0.10391044
225	0x3ce317d7	0.027721329
226	0xbe05a2ee	-0.13050434
227	0xbde7ba13	-0.11314788
228	0xbdcdfcfc	-0.100580186
229	0xbd0d16ed	-0.03444569
230	0xbe8d8f26	-0.27648276
231	0xbd21f370	-0.0395388
232	0xbdf0e279	-0.11761946
233	0xbd114d4b	-0.035474103
234	0xbae1778e	-0.0017201768
235	0xbdf1cf00	-0.1180706
236	0xbe12758b	-0.14302652
237	0xbdf7b5bd	-0.12095211
238	0x3d2ef46d	0.04271357
239	0xbcdd5e66	-0.027022552
240	0x3d877aaf	0.06615197
241	0xbcae6d63	-0.021292394
242	0xbdda6513	-0.106638096
243	0xbb8ed8eb	-0.0043593547
244	0xbd456b07	-0.048197772
245	0x3adf3207	0.0017028459
246	0xbda94116	-0.08264367
247	0xbdeb9bf7	-0.11504357
248	0x3d640091	0.055664603
249	0xbce3ad90	-0.027792722
250	0x3d126b01	0.035746578
251	0xbda1b8d3	-0.078965805
252	0x3d92e5d4	0.071727425
253	0x3d0c4c1c	0.03425227
254	0x3c69c80e	0.014268888
255	0xbe5aea07	-0.21378337

fc2.bias f4 [128]
0	0xbd00849e	-0.031376474
1	0xbe052371	-0.13001801
2	0xbf2743be	-0.6533774
3	0xbce0851b	-0.02740722
4	0xbdd6a888	-0.104813635
5	0xbda14ff9	-0.07876582
6	0xbde17313	-0.11008277
7	0xbe362b0b	-0.17789857
8	0xbd4ccebd	-0.05000185
9	0xbee733b6	-0.4515664
10	0xbdf77b29	-0.12084038
11	0xbdfed9cf	-0.124438874
12	0xbd3e75b2	-0.04649896
13	0xbf0e2185	-0.55519897
14	0xbf212a43	-0.6295511
15	0xbe349453	-0.17634706
16	0x3f4a4aee	0.79020584
17	0xbf98ddb4	-1.1942658
18	0xbe7f1a0d	-0.24912281
19	0xbd789939	-0.060693
20	0x3f417b14	0.7557843
21	0xbd3c827f	-0.04602289
22	0xbf0fc655	-0.56162006
23	0x3f772ced	0.96552926
24	0xbea1d773	-0.31609687
25	0xbdf857b5	-0.12126104
26	0x3e936f11	0.28795674
27	0xbd809e8c	-0.062802404
28	0xbd3c7484	-0.046009555
29	0xbe2419a5	-0.16025408
30	0xbe02113f	-0.12701891
31	0xbee48700	-0.44634247
32	0xbd702684	-0.05863048
33	0xbcba149f	-0.022714911
34	0xbd16faee	-0.0368604
35	0xbeeb80cc	-0.45996702
36	0xbec37608	-0.38175988
37	0xbdef6055	-0.11688296
38	0xbd9acaec	-0.075582355
39	0xbdf66751	-0.12031425
40	0xbef21aac	-0.47285974
41	0xbc9d19fe	-0.019177433
42	0xbdab51b9	-0.08365197
43	0xbdfd1397	-0.12357252
44	0x3e885db9	0.26634005
45	0xbee392ca	-0.4444793
46	0xbd3ee009	-0.046600375
47	0x3f671a8c	0.9027488
48	0xbe5e7c17	-0.21727024
49	0x3b79025b	0.0037995789
50	0xbf22b656	-0.6355947
51	0xbe21a11f	-0.15784119
52	0xbc876ef4	-0.016532399
53	0x3f214226	0.6299156
54	0xbe2f0006	-0.17089853
55	0xbe27bb1f	-0.16379975
56	0xbe058ed7	-0.1304277
57	0xbd06e66d	-0.032934595
58	0xbdff0c4e	-0.12453519
59	0xbe2717c8	-0.16317666
60	0xbd259575	-0.040425736
61	0xbcf81d7b	-0.030287495
62	0xbe36ca1f	-0.1785054
63	0x3f2510a5	0.6447852
64	0x3f09ae7c	0.5378187
65	0xbd1387ab	-0.036018055
66	0xbe2d969a	-0.16951981
67	0x3ec90f37	0.3926942
68	0xbdede724	-0.11616352
69	0xbe9568b9	-0.2918146
70	0xbc8d7b35	-0.017270664
71	0x3e29a259	0.16565837
72	0xbd0d5b03	-0.034510624
73	0x3ea62834	0.32452548
74	0xbdb4860d	-0.08814631
75	0xbdbe0433	-0.09278145
76	0xbe2ca88e	-0.16861174
77	0xbe21ee62	-0.15813592
78	0x3f34db71	0.7064734
79	0x3da8a3b1	0.08234347
80	0x3fa299c1	1.2703172
81	0x3f709462	0.93976414
82	0xbe1a6c42	-0.1508036
83	0xbd9ccb97	-0.07656019
84	0x3f98fbcc	1.1951842
85	0x3f8f1140	1.1177139
86	0xbf8c2518	-1.094882
87	0xbe1f8377	-0.15577494
88	0x3f154726	0.5831169
89	0x3f583776	0.84459627
90	0xbe5e4593	-0.21706228
91	0xbe08ea01	-0.13370515
92	0xbeadcb66	-0.33944243
93	0xbe959d8a	-0.29221755
94	0x3a9c337d	0.00119172
95	0xbdb02ec6	-0.08602671
96	0xbdfed73b	-0.12443396
97	0x3fd18b75	1.6370684
98	0xbce0f58b	-0.027460834
99	0xbd55b0ae	-0.052170448
100	0x3eaa43a5	0.33254734
101	0xbe1be9c6	-0.15225896
102	0xbe4729c7	-0.1944953
103	0xbe02e8fd	-0.1278419
104	0x3f3042a7	0.68851703
105	0xbd98cc70	-0.07460868
106	0xbed8a928	-0.42316556
107	0xbdfd9fd7	-0.12384003
108	0xbe26014b	-0.1621143
109	0xbe19abe8	-0.15006983
110	0x3f4cc2ac	0.79984546
111	0x3bcf7cf4	0.0063320342
112	0x3f69e776	0.91368806
113	0x3f2647b2	0.6495315
114	0xbec609d4	-0.38679373
115	0xbd01d54b	-0.031697553
116	0xbf2e100e	-0.6799325
117	0xbd82269c	-0.063550204
118	0xbc3afd54	-0.011412937
119	0xbe2617ba	-0.16219988
120	0xbde32346	-0.11090712
121	0xbd2ed484	-0.04268314
122	0x3f5849b0	0.8448744
123	0xbc9ee49d	-0.01939612
124	0xbdebd2ba	-0.11514802
125	0x3cbac4c2	0.0227989
126	0xbdc5b2d1	-0.09653247
127	0xbe09e204	-0.13465124

fc3.weight f4 [1, 128]
0	0xbbc30e9c	-0.0059526693
1	0x3ca7da8f	0.020489959
2	0xbc890605	-0.016726503
3	0xbb142ede	-0.0022610943
4	0x3cf16282	0.029465917
5	0xbca22709	-0.019794004
6	0x3bfe57b5	0.0077619203
7	0xbc7f7b94	-0.015593428
8	0xbae3b918	-0.0017373888
9	0xbdb53329	-0.08847649
10	0x3ce15be6	0.02750964
11	0x3c08bd46	0.008345908
12	0xbc650451	-0.01397808
13	0xbc6253fa	-0.013813967
14	0xbd438075	-0.047729928
15	0x3c6c9825	0.014440571
16	0x3d3910b6	0.045181952
17	0xbd354f2e	-0.044264965
18	0xbd6e324a	-0.058153428
19	0x3cb03a32	0.021512125
20	0x3d3238b5	0.04351111
21	0x3ce60d66	0.02808256
22	0xbce3b240	-0.027794957
23	0x3ce07347	0.027398719
24	0xbd95bbba	-0.073111966
25	0xbd13f054	-0.036117867
26	0xbd7b1507	-0.06129935
27	0x3e5de8fb	0.21670906
28	0xbce5e8f0	-0.028065175
29	0xbd0fa405	-0.03506853
30	0x3c00da49	0.007864543
31	0xbd67ae87	-0.056562927
32	0x3cc9e123	0.024643486
33	0x3c8a61f1	0.016892405
34	0x3c264544	0.01014835
35	0xbd93764e	-0.07200299
36	0xbcfd79d9	-0.03094189
37	0xbc34e6a7	-0.01104132
38	0x3a943132	0.0011306165
39	0x3c14946c	0.00906859
40	0xbcb267df	-0.021778045
41	0x3ca094b6	0.01960216
42	0x3b93d3af	0.0045113186
43	0xbcdd1a1f	-0.026989995
44	0x3d2a818b	0.041627448
45	0xbcbf9939	-0.023388492
46	0xbcd0e4f0	-0.02549979
47	0x3cf657cb	0.03007116
48	0x3d89b2c1	0.06723548
49	0x3ca298ba	0.019848216
50	0xbc971d7d	-0.018446678
51	0xbc85b121	-0.016319813
52	0xbb260023	-0.0025329671
53	0x3d2ffef1	0.04296774
54	0xbcc8e1af	-0.024521677
55	0xbba22a26	-0.004948872
56	0xbca70dc6	-0.02039231
57	0x3c0680fb	0.008209462
58	0x3c73485d	0.014848796
59	0xbc5e86e5	-0.013581966
60	0xbc18db6f	-0.009329661
61	0x3ced4620	0.028964102
62	0xbb8f1352	-0.004366317
63	0x3cd0c0b2	0.02548251
64	0x3d883832	0.066513434
65	0xbca4110c	-0.02002766
66	0x3b875aab	0.0041306815
67	0x3cdf6ace	0.027272608
68	0xbc7a9c94	-0.01529612
69	0xbd7d701b	-0.06187449
70	0x3c625d7c	0.013816234
71	0xbd8d92ff	-0.06912803
72	0xbc269ba7	-0.010168946
73	0x3d2081ec	0.039186403
74	0x3a887fde	0.0010414084
75	0x3c95ea40	0.018300176
76	0x3c205093	0.009784835
77	0xbcbcf2b1	-0.023064943
78	0x3d3feb95	0.046855528
79	0xbd287530	-0.041127384
80	0x3d93334f	0.07187521
81	0x3db08ca1	0.08620573
82	0x3ce8daa3	0.028424567
83	0x3c30c8ac	0.010790031
84	0x3d363246	0.04448154
85	0x3d800112	0.06250204
86	0xbce63715	-0.028102437
87	0xbb8e3e70	-0.004340939
88	0x3d522d7e	0.051312916
89	0x3d6e1175	0.058122117
90	0xbe042df3	-0.12908153
91	0xbd07d6ae	-0.03316372
92	0xbc927910	-0.017879993
93	0xbccdfc5a	-0.025144745
94	0x3c8043ad	0.01565727
95	0x3c810335	0.0157486
96	0xba5c9713	-0.0008414846
97	0x3dfb2ead	0.12264762
98	0xbb616aae	-0.0034395861
99	0xbc99ec8b	-0.01878955
100	0x3d326f1f	0.043563005
101	0xbbcf1435	-0.0063195475
102	0x3c0ee0eb	0.008720617
103	0x3ba0b238	0.004904058
104	0x3d3ea80f	0.046546992
105	0x3cb4d822	0.022075716
106	0xbd86f873	-0.06590357
107	0x3ce4fda9	0.027952986
108	0x3cce9402	0.02521706
109	0x3bd2a628	0.006428499
110	0x3d1125e8	0.03543654
111	0x3c4baa80	0.012430787
112	0x3d095ee3	0.033537757
113	0x3d5d3e78	0.054014653
114	0xbd7295b0	-0.059224784
115	0x3bd0a8e7	0.006367791
116	0xbd01f2fd	-0.031725872
117	0xbc37efac	-0.011226576
118	0x3c88da9b	0.016705802
119	0xbd3b00f9	-0.045655224
120	0x3b543cef	0.0032384952
121	0x3bc49463	0.0059991344
122	0x3d0e669c	0.034765825
123	0xbcd543fd	-0.026033396
124	0xbb56d42d	-0.0032780275
125	0xbcfb88ef	-0.030704943
126	0x398743ac	0.00025799626
127	0xbb12ea81	-0.0022417607

bn0.weight f4 [33]
0	0x3e8a38dc	0.26996505
1	0x3ef3af2e	0.4759459
2	0x3efa5076	0.48889512
3	0x3ce47f60	0.027892768
4	0x3f42d368	0.7610383
5	0x3f54aa42	0.8307229
6	0x3eb6e1ac	0.3571905
7	0x3db77710	0.08958256
8	0x3f214e8e	0.6301049
9	0x3d20eda0	0.039289117
10	0x3f61a801	0.8814698
11	0x3ef0f162	0.4705916
12	0x3e4d7f90	0.20068192
13	0x3f6598fc	0.8968656
14	0x3f4b08b2	0.79310143
15	0x3f00af2b	0.50267285
16	0x3eab9cae	0.33517975
17	0x3ea1e862	0.31622607
18	0x3f7e2d9a	0.9928833
19	0x3f22cd5d	0.6359461
20	0x3c143ac0	0.00904721
21	0x3ee1d2b8	0.44106078
22	0x3f39504e	0.7238816
23	0x3f440d03	0.76582354
24	0x3f006f3b	0.50169724
25	0x3f1ff4bb	0.62482804
26	0x3ee02698	0.43779445
27	0x3f0ad0f2	0.54225075
28	0x3e8960d6	0.26831692
29	0x3f2c6abe	0.67350376
30	0x3e6d47f8	0.23171985
31	0x3f029c86	0.51020086
32	0x3f1086a8	0.5645547

bn0.bias f4 [33]
0	0x00000000	0.0
1	0x00000000	0.0
2	0x00000000	0.0
3	0x00000000	0.0
4	0x00000000	0.0
5	0x00000000	0.0
6	0x00000000	0.0
7	0x00000000	0.0
8	0x00000000	0.0
9	0x00000000	0.0
10	0x00000000	0.0
11	0x00000000	0.0
12	0x00000000	0.0
13	0x00000000	0.0
14	0x00000000	0.0
15	0x00000000	0.0
16	0x00000000	0.0
17	0x00000000	0.0
18	0x00000000	0.0
19	0x00000000	0.0
20	0x00000000	0.0
21	0x00000000	0.0
22	0x00000000	0.0
23	0x00000000	0.0
24	0x00000000	0.0
25	0x00000000	0.0
26	0x00000000	0.0
27	0x00000000	0.0
28	0x00000000	0.0
29	0x00000000	0.0
30	0x00000000	0.0
31	0x00000000	0.0
32	0x00000000	0.0

bn0.running_mean f4 [33]
0	0xbed6816a	-0.4189561
1	0xc030cb20	-2.7623978
2	0x3d13e4eb	0.036106985
3	0x3f64f0ec	0.8943012
4	0xbd55a674	-0.052160695
5	0x3c3f3ac3	0.011671725
6	0x3be1f9a7	0.006896216
7	0xbc6e6110	-0.014549509
8	0x3aafddb9	0.0013417519
9	0x3b02be3a	0.001994981
10	0x3c8ad1fd	0.016945833
11	0x3cabf713	0.020991838
12	0x3d3daa82	0.046305187
13	0xbee76a56	-0.45198315
14	0xc033a3fb	-2.8068836
15	0xbd29de0e	-0.041471533
16	0x3c91c95c	0.017796211
17	0x3ceba9b6	0.028767448
18	0xbc1eb60f	-0.009686961
19	0xbc4a4118	-0.012344621
20	0xb9c92ac6	-0.00038369576
21	0x3c7aecb6	0.015315225
22	0x3a157d61	0.0005702582
23	0xbd835713	-0.064130925
24	0x3dfc136e	0.123083934
25	0xbc50ee26	-0.0127520915
26	0xbb363b85	-0.0027806472
27	0xbf7ffffc	-0.99999976
28	0x3d36cfc3	0.04463173
29	0x00000000	0.0
30	0x3f7ffffc	0.99999976
31	0x00000000	0.0
32	0x3cd98057	0.026550455

bn0.running_var f4 [33]
0	0x40815da1	4.0426793
1	0x3edceb68	0.4314835
2	0x4071b59d	3.7767098
3	0x3d0c4b26	0.034251355
4	0x3d89c0b5	0.06726209
5	0x3c435c3b	0.011923845
6	0x3dac6297	0.08417242
7	0x3e60bed4	0.21947795
8	0x3d34cb19	0.044139
9	0x3dc467f0	0.09590137
10	0x3fee3447	1.8609704
11	0x3f38b6fb	0.72154206
12	0x4007bb36	2.1208014
13	0x4196a0ae	18.828457
14	0x3fd53774	1.6657548
15	0x419d40bd	19.65661
16	0x3dc34369	0.09534342
17	0x3e6182a8	0.22022498
18	0x3d8642af	0.06555688
19	0x3f1e199c	0.61757827
20	0x3fdc4c92	1.7210867
21	0x3f239d98	0.63912344
22	0x3eea22ae	0.45729584
23	0x40ec7584	7.389345
24	0x405249a7	3.2857454
25	0x40f9e190	7.8087845
26	0x41fd956b	31.697958
27	0x00000004	6e-45
28	0x4201b228	32.42398
29	0x00000004	6e-45
30	0x00000004	6e-45
31	0x00000004	6e-45
32	0x3eaff3aa	0.34365588
